Value_Based_Methods_Navigation/checkpoint.pth (torch, 29271 bytes, 6 tensors)

fc1.weight f4 [64, 37]
000000 d4 ce 69 bc 1a 73 10 3d c2 90 63 be 80 77 69 be
       -0.014270503 0.03526602 -0.2222319 -0.22799492
000010 9f 78 02 bd 9a 33 e4 3b 44 b1 0c bd 88 d9 8e bd
       -0.031853314 0.006964159 -0.03434874 -0.069750845
000020 db ef af 3d 63 66 21 3e a8 19 f6 3d 7e 11 c4 be
       0.08590671 0.15761714 0.12016612 -0.38294595
000030 b8 8d 81 be 6a 73 86 be 43 7b 03 bf 56 1b 2b bc
       -0.25303435 -0.2625993 -0.5135996 -0.010443529
000040 46 99 04 3e 36 63 8c bd e7 88 aa be 44 bf 7b bd
       0.12949094 -0.068548605 -0.33307573 -0.061461702
000050 f6 ef 16 bd 7e 66 1c 3d ed ec 17 3d 92 a4 b2 3d
       -0.03684994 0.03818368 0.037091184 0.087227955
000060 f8 1d 42 be 6a f7 96 3d 9c 56 d3 bb 7b c4 23 be
       -0.18956745 0.07371409 -0.0064495336 -0.1599292
000070 db a1 d1 bd ff a0 8b 3b b0 d5 74 be 9d 4d 27 3e
       -0.102359496 0.0042611356 -0.2390964 0.16338201
000080 a3 c2 94 3d fd be 7a be 52 ef 62 be 81 89 8f be
       0.072636865 -0.24486919 -0.22161606 -0.28034595
000090 92 6d bc 3b a7 24 c8 3d ed 23 89 3d 55 ae 33 3d
       0.0057503665 0.09772616 0.066963054 0.043867428
0000a0 82 87 b5 bc cc bb 01 be e4 a8 96 bd 98 89 37 be
       -0.022159342 -0.12669295 -0.07356432 -0.17923582
0000b0 61 62 b9 bd eb 92 7d 3d 22 a0 96 3e 28 be 78 3e
       -0.090519674 0.06190769 0.29419047 0.24291289
0000c0 34 32 ed be dc 52 91 be 54 49 8a 3e 3e 63 12 3f
       -0.46327364 -0.2838353 0.2700907 0.5718268
0000d0 68 a3 22 3e 48 6a 29 bc 97 63 6b bd ca ca 94 bd
       0.15882647 -0.010340281 -0.057468023 -0.072652414
0000e0 95 b9 9d be b6 08 6a bd f6 ea 2b be 10 be 20 be
       -0.3080565 -0.057137214 -0.16788849 -0.15697503
0000f0 73 3d b7 bd c3 ce 54 3e ce 47 b7 bc 7b a6 5f 3d
       -0.089472674 0.20781998 -0.022373106 0.054602128
000100 d2 e7 5a bd fb 80 13 bd 73 2e a6 bd 39 a0 38 bd
       -0.053443737 -0.036011677 -0.08114328 -0.045074675
000110 54 9b 83 3d 5a 41 b7 3d 18 47 ab 3d 52 ba 5c 3d
       0.06426111 0.08948012 0.083631694 0.053888626
000120 d3 43 13 bd 44 52 e0 bb af b6 49 3e 37 99 9e 3d
       -0.035953354 -0.0068457443 0.19698595 0.07744067
000130 1c bd 25 3c 19 50 e4 bd e6 98 b0 bd 0f 77 93 be
       0.010115888 -0.1114809 -0.08622913 -0.28801772
000140 6c af 0d be 01 af 72 3e 6f 38 07 3e 69 92 16 3c
       -0.1383645 0.23699571 0.13205121 0.00919018
000150 ec 43 26 bc c0 f5 06 be e7 aa 9d 3d ec d7 7b bd
       -0.01014803 -0.13179684 0.07698613 -0.061485216
000160 48 5d 02 bc da 82 99 bc 70 2d 82 bd 45 e9 20 3e
       -0.00795681 -0.018739153 -0.06356323 0.15713985
000170 4d 72 4c bd 4d 56 07 3e a0 88 ab be 50 6a 0b be
       -0.049913693 0.13216515 -0.33502674 -0.13614774
000180 f1 da 1d 3e 8b fa c2 3d 80 e2 c8 3c 1d 2d c5 be
       0.15415551 0.095204435 0.024522066 -0.3851098
000190 ad 3f 21 3e 74 17 92 3e 25 2e b5 3d a7 9a 7b be
       0.15746947 0.28533518 0.08846692 -0.24570714
0001a0 48 d4 3d be f2 f0 13 be 6c 94 3d be bd 8b 02 3e
       -0.1853801 -0.14447382 -0.1851365 0.12748618
0001b0 e8 0f 85 3d 22 72 29 3d c4 74 59 bc 14 0f b6 3e
       0.064971745 0.04136861 -0.013272468 0.3555838
0001c0 ee 35 0f bf 78 73 c4 bd 2b f9 22 bd 54 be a4 bf
       -0.55941665 -0.095923364 -0.039788406 -1.2870584
0001d0 4c d2 37 3c 8b 6d 15 3d cc da 4f 3d 5e ef 90 3d
       0.011219572 0.03648142 0.05074577 0.07076906
0001e0 93 05 07 3e 80 c5 0a 3d 73 53 61 bc 8f 8a 9d 3d
       0.1318572 0.033879757 -0.013752806 0.076924436
0001f0 ce 76 eb bd 51 5c 9c bd 1b c6 31 bd db b7 20 3e
       -0.114972696 -0.076347955 -0.04340182 0.15695135
000200 98 28 fe bd 6c 48 28 be 3d b8 e7 be cd 78 4a 3d
       -0.124100864 -0.16433877 -0.4525775 0.04943161
000210 bd 31 9f bc 12 e7 f3 3c 3b b1 c5 3d 11 22 b3 3d
       -0.019432897 0.029773269 0.09652945 0.08746732
000220 a3 52 72 bd 37 5f 18 bc 4f f5 fc 3d 3c 5e 5b 3e
       -0.05916084 -0.009300045 0.123514764 0.21422666
000230 de 01 aa 3e 97 4c e7 3c ff 60 ff 3d f1 e1 4d 3d
       0.3320455 0.028234763 0.124696724 0.050264303
000240 c9 00 7e 3d ba d5 1e be 89 9c f0 3b 3c cb af bb
       0.062012468 -0.15511218 0.007342879 -0.0053648036
000250 27 8d 4a bd b9 48 2c be be a3 db bd 9d b8 c7 bd
       -0.04945102 -0.16824616 -0.10724591 -0.09752009
000260 45 c9 0c 3d e2 7b 95 3e 8c 9f 80 be 24 81 d7 be
       0.034371633 0.29196078 -0.25121725 -0.42090714
000270 71 ed 0e bf a8 5b e1 bf 56 97 b9 bc 34 04 f0 bc
       -0.55831057 -1.7606096 -0.02265517 -0.02929888
000280 fc 1b ec 3c 6b 30 1f bd 0c ca 15 be 07 37 1e be
       0.028821938 -0.038864534 -0.14627856 -0.15450679
000290 77 47 18 3d 39 9f 8f 3d 12 39 8a 3d db c4 88 3e
       0.03717753 0.07012791 0.067491665 0.2671269
0002a0 b7 78 20 bd 64 c6 f9 3c e4 34 d6 3d e4 9b b1 3b
       -0.039177623 0.030490108 0.10459307 0.005420195
0002b0 81 e0 c4 bc c4 8f 12 3c ec 49 5b 3d 0d 4e 10 3e
       -0.024032833 0.008945409 0.053537294 0.14092274
0002c0 c2 de 7b 3d 96 47 c1 3c 37 fe 85 3d f5 d6 87 bc
       0.061491735 0.023593705 0.06542628 -0.016581992
0002d0 b7 92 cd 3d 49 74 16 bd 03 77 52 3e d1 6a 22 3c
       0.10037749 -0.036731992 0.20553212 0.009913162
0002e0 c8 b4 b6 3c 13 a1 37 3d cb e4 30 bd 61 a5 bd bb
       0.022303 0.044831347 -0.043186944 -0.005787537
0002f0 9f 17 ff 3b be 92 25 3c e2 12 58 3e 95 c6 c0 3d
       0.0077847983 0.010105787 0.21100953 0.094128765
000300 b0 c1 2f be 33 1e 71 bd 14 bd 5a bf 85 44 f7 bc
       -0.1716373 -0.05886669 -0.8544476 -0.03018404
000310 88 d4 94 3c a7 f5 76 bd cb 4b fd bd 3e 71 0b 3d
       0.018167749 -0.060292866 -0.12367972 0.034043543
000320 8a 28 61 3d 2b be 1c 3d 6c ca b9 bc b8 cf b5 bd
       0.0549703 0.038267296 -0.02267953 -0.0887751
000330 6d be 11 be 07 f8 f7 3d 56 30 ca 3d 1a a3 0f 3e
       -0.14232798 0.12107854 0.098725006 0.14027062
000340 47 ef 00 bd 79 01 40 3e 80 81 3e bb 1c 40 74 3d
       -0.031478193 0.18750562 -0.0029068887 0.059631452
000350 13 63 3b 3d 78 e0 06 3c 9b 55 2a 3d c2 c4 4e 3e
       0.04574878 0.008232228 0.041585546 0.20192245
000360 d3 68 eb bd aa 38 69 be af 70 16 be 8b 7a 1a bf
       -0.11494603 -0.22775522 -0.14691423 -0.60343236
000370 ee f5 f0 bd 86 d1 9a 3c 7c 3e 7f bd 42 08 2c bd
       -0.11765657 0.018898737 -0.06231545 -0.042000063
000380 1e 30 19 bd 6f 9c c9 bd c8 67 4c bd 45 b7 78 bd
       -0.037399404 -0.098442905 -0.04990366 -0.060721654
000390 37 4b 0c be c4 7d c8 bd cd 75 af bd e3 04 ad 3e
       -0.13700567 -0.09789613 -0.085673906 0.3379279
0003a0 45 04 cc 3d 87 5d 58 3d b4 64 52 3d 70 d7 99 be
       0.09961752 0.05282357 0.05136557 -0.30047178
0003b0 f6 84 84 3e 25 34 43 be 09 ae 21 be e5 03 92 3c
       0.2588269 -0.1906286 -0.15789045 0.017824123
0003c0 55 5b fc 3d 25 b8 c7 3c 6e 9f 1a 3d 9c f5 15 be
       0.12322108 0.0243798 0.0377497 -0.14644474
0003d0 15 2e 42 be 90 6b fc bc 1d 11 0a 3e c4 9a 72 be
       -0.18962891 -0.030813009 0.1348309 -0.23691851
0003e0 e1 22 60 bd 40 09 6a bd 08 3b 06 be 2f 58 9e 3d
       -0.054720763 -0.057137728 -0.13108456 0.077316634
0003f0 4d 27 19 3d 71 b6 4f be 44 9e 81 bd c3 3f c2 bd
       0.037390996 -0.2028444 -0.06329015 -0.09484818

fc1.bias f4 [64]
000000 5c 5b a4 3d 1a c7 93 bd 2f 13 40 be 3c 22 42 3c
       0.08025238 -0.0721571 -0.18757318 0.011848982
000010 6f b5 71 3e 14 66 72 bb 38 de 39 be cf 3f 87 3d
       0.23604368 -0.0036987113 -0.18151176 0.066039674
000020 ae ae ad 3d b0 27 24 be 74 d8 5b 3e bd a1 7a 3e
       0.08480583 -0.16030765 0.21469289 0.24475761
000030 a5 ce 44 3d 7f a7 02 3e 88 b9 87 bd 0b e2 57 bd
       0.048048634 0.12759207 -0.06627184 -0.052705806
000040 9b 16 a1 3d 14 61 c2 3d 17 d4 20 3d 17 1a 6a be
       0.0786564 0.094911724 0.039264765 -0.22861515
000050 8f d8 09 bd 28 e5 49 3d 99 f2 10 3d 69 dd c8 bd
       -0.033653792 0.049290806 0.03538761 -0.09807856
000060 f1 59 ad bd 5a 9e 06 3e 30 43 5b 3c 22 b4 28 ba
       -0.084644206 0.13146344 0.013382718 -0.0006435533
000070 bd d8 b4 3d 6d 99 26 3e be d1 fa bc 94 1e 40 be
       0.08830402 0.16269465 -0.030617591 -0.18761665
000080 ce c0 3e 3e 6b a9 06 3d 57 d3 2b be db c2 bd 3c
       0.18628237 0.032876413 -0.16779839 0.023164203
000090 6f 9e bf 3a d8 60 2d 3d d8 ca cc bb ca dc 36 be
       0.001461936 0.042328686 -0.006249767 -0.17857662
0000a0 45 c9 f2 bc f9 5a ca bc 0d fe 17 be ee 97 36 3e
       -0.029636988 -0.024701582 -0.14843006 0.17831394
0000b0 7c c9 a5 3d 09 46 98 bd d5 ea 6d bd 8a 6c 15 be
       0.08095071 -0.07435233 -0.05808528 -0.14592186
0000c0 40 62 4e be d5 c2 5e 3d 7a 61 55 be f0 0b 9e 3d
       -0.20154667 0.054385025 -0.20837966 0.07717121
0000d0 53 3e e5 3b da a4 96 bd 82 ef 68 be 4e 08 a8 bd
       0.006995955 -0.07355662 -0.22747615 -0.08204709
0000e0 33 c6 8c 3d ef 67 b6 bd bb 1b a7 bd dc 84 fd bd
       0.06873741 -0.089065425 -0.08159586 -0.123788565
0000f0 1c b0 0d 3d 44 b4 9b 3d 51 50 8a 3d c8 d6 26 bd
       0.03459178 0.07602742 0.067536004 -0.040732175

fc2.weight f4 [64, 64]
000000 e6 02 77 bd 95 5e 5a bd 66 23 68 3c b2 79 c7 3e
       -0.0603055 -0.053312857 0.014168596 0.38960034
000010 3d 0b 03 3d 01 8f 2c be df b1 2a be 8d b9 a4 bd
       0.03199314 -0.16851427 -0.16669415 -0.080432035
000020 0c ce 23 be 5f b2 53 bc 84 f9 37 bc fa 7e 8b bd
       -0.1599657 -0.012920945 -0.011228923 -0.06811328
000030 79 fe 9c be 7b f8 a9 3d 96 b7 8a 3c 5a 57 09 bd
       -0.30662897 0.08299347 0.016933244 -0.03353057
000040 5b 03 dd bd eb b0 9a be 88 44 5b 3d bb d2 1a 3c
       -0.10791656 -0.30213103 0.053532153 0.009449656
000050 d2 bc a5 3d ad 3d f4 ba 78 a3 ca 3c c7 d2 15 3e
       0.08092655 -0.0018634103 0.024736151 0.14631186
000060 41 91 f3 bd 23 f0 5b be 7e 63 6a be 3a 80 62 3e
       -0.11892939 -0.21478324 -0.22889516 0.22119227
000070 10 51 94 be 62 3b a3 bd 37 6a b5 3a 99 94 c3 be
       -0.28968096 -0.07970311 0.0013840859 -0.3819931
000080 5d e6 05 3e c7 b9 e9 bd d1 da 11 bd 07 a4 2c 3d
       0.13076158 -0.11412387 -0.03560907 0.042148616
000090 d4 07 23 bd 8e f3 c7 3d bc f0 4d 3e c4 ef d5 3c
       -0.039802387 0.09763251 0.20111364 0.026115306
0000a0 8c 54 61 be c7 df e9 bd 0d 73 02 bd 55 f5 dd bd
       -0.22004908 -0.11419635 -0.031848002 -0.10837809
0000b0 86 5d 0b bc b9 6a 5b be 02 c1 13 3c 10 a0 02 be
       -0.008506184 -0.2142743 0.009018185 -0.12756371
0000c0 b7 7c 48 bd c3 ac 90 3e d2 1f f4 3d 6b 40 db bd
       -0.048947062 0.28256807 0.11920132 -0.10705646
0000d0 9e df de bd d9 0b 77 3d fe a0 d4 bd ee 94 96 bd
       -0.10882495 0.060314033 -0.10382269 -0.07352625
0000e0 af 6b e5 3a 11 85 f0 bd bd b2 0e be 0c 7e ea bc
       0.0017503406 -0.117441304 -0.1393537 -0.028624557
0000f0 8c 68 16 3e ec 1e 84 3e f3 57 57 be 11 56 d1 bd
       0.14688319 0.25804842 -0.21029644 -0.10221494
000100 9a 29 a0 3d f2 75 b7 3d 13 43 81 bd 09 ed 2c be
       0.07820435 0.08958043 -0.063116215 -0.16887297
000110 b9 8f bf 3e 3a 38 a5 3d d6 8c 97 bc d1 4c 4b bd
       0.3741434 0.08067365 -0.018499773 -0.049633805
000120 e9 84 d7 bd bd 3c 54 bd ac 23 2a be 67 70 bc 3e
       -0.105233975 -0.051815737 -0.1661517 0.36804506
000130 a7 d0 9e bc 25 02 07 3e 61 03 8c be df 89 10 3c
       -0.019386603 0.13184412 -0.27346328 0.0088219335
000140 10 4f 41 3b e5 cb f4 bc f1 7c ff ba 77 9c 01 3e
       0.0029496588 -0.02988238 -0.0019492191 0.12657343
000150 22 b4 a5 3d 14 af 4c be 69 23 4c bd fa 07 84 ba
       0.08090998 -0.19988662 -0.049838457 -0.0010073178
000160 06 a8 55 bd b8 ab a9 bc 26 51 03 be f7 bf d9 bd
       -0.052162193 -0.020711765 -0.12823924 -0.106323175
000170 4a d6 69 3e 97 44 7e be 7b 25 c4 bd 55 69 03 bc
       0.22835651 -0.24830852 -0.09577461 -0.008020719
000180 f1 9f 87 be 2f 23 26 3d 5e 40 d3 bd 02 ed b8 bd
       -0.26489213 0.040560897 -0.103150114 -0.09029581
000190 ce 83 f5 3d 20 f1 21 be 4c fb b7 bc bf 1a 59 be
       0.119880304 -0.15814638 -0.022458695 -0.21201609
0001a0 b0 49 10 be c1 8a d4 3c 53 5d b6 bd 3a c2 ff bd
       -0.1409061 0.02594507 -0.08904519 -0.12488218
0001b0 5c fd 9c bd 88 b5 d1 bd 1e aa 1c be 53 d4 52 be
       -0.07665512 -0.102397025 -0.1529927 -0.20588808
0001c0 2c 91 1b be c6 0a 45 be 09 d3 e5 bc e5 3a d8 3d
       -0.15192097 -0.19242391 -0.028054731 0.10558108
0001d0 19 63 23 3d 25 51 a7 3c 59 7e 95 bd e6 c1 1c 3e
       0.03988943 0.020424435 -0.072994895 0.15308341
0001e0 7d 0d f8 bc 4b f8 bb bd e1 90 1e 3e fa 0b 49 3e
       -0.03027987 -0.091782175 0.15484954 0.19633475
0001f0 70 07 9a be 9a f5 d7 bd 5f a5 97 bd 24 fe fb bd
       -0.300838 -0.10544892 -0.07404589 -0.12304333
000200 48 1a e7 bd 8e 57 80 bd 19 72 09 3d b7 37 e2 bd
       -0.112843096 -0.062667 0.033556078 -0.11045783
000210 b0 41 0e 3e cf 75 ae 3d 54 9e 33 3e 46 84 d9 bc
       0.13892245 0.08518564 0.17540866 -0.02655233
000220 38 b8 06 3e 13 bd b9 3b a1 51 d5 bc f4 46 a8 3e
       0.13156211 0.0056682914 -0.0260399 0.32866633
000230 60 52 ab ba be 59 57 3e f3 c5 2a 3b 4d a8 a7 bd
       -0.0013070814 0.21030328 0.0026057928 -0.08186398
000240 b1 43 e4 bd 56 1f 8a 3e 00 db 16 bc 96 b6 f4 bc
       -0.111457236 0.26977032 -0.009207487 -0.02987222
000250 db 65 4e 3d 29 4a d9 bc 56 1a 91 3d 99 ef 26 be
       0.050390106 -0.02652462 0.07085101 -0.16302337
000260 5b 90 8b be 15 00 30 3e ab 21 8a 3d fc c0 4c 3e
       -0.27258572 0.17187531 0.06744703 0.19995493
000270 44 f8 d7 3d c3 d9 b7 3d 68 14 5b bd 3e 91 37 3c
       0.105454 0.089770816 -0.053486258 0.011204062
000280 74 d7 88 be 83 f6 4f 3c 61 57 28 be b9 c6 ff 3c
       -0.26726878 0.01269305 -0.16439582 0.031222688
000290 e8 a7 09 3d ab 9e e9 3c 82 3d 06 bd 71 b8 b7 bd
       0.033607394 0.028518042 -0.032773502 -0.08970726
0002a0 b3 18 92 3e 60 8d 98 ba 8a 26 a5 bc b5 94 f8 bd
       0.2853447 -0.0011638813 -0.020159978 -0.121377386
0002b0 d6 77 09 3b e4 6c 09 3c 30 bb 98 bc ec 7b ee bd
       0.0020975969 0.008387778 -0.018643945 -0.1164473
0002c0 f9 42 dc bc 2a 94 64 be 21 21 e5 3b 33 83 09 3e
       -0.026887404 -0.22322145 0.0069924747 0.13428955
0002d0 b1 ee 57 bf d2 62 9c bc cb 27 cc bd 25 87 61 bd
       -0.8434859 -0.01909009 -0.099685274 -0.055060524
0002e0 b4 a7 9a 3a 0e 00 b8 bd fa d8 15 3e 96 93 88 3c
       0.0011799247 -0.089843854 0.14633551 0.016671937
0002f0 bf 99 c6 bc ed 0b 98 3d ad b1 5e 3e 71 6c fa 3d
       -0.024243234 0.0742415 0.21747465 0.12227715
000300 27 be f9 3d 34 61 92 be 71 02 c9 3d 96 97 e8 bd
       0.12194472 -0.28589785 0.09814919 -0.11357038
000310 51 dd db 3c d1 97 e5 bd 5e a1 11 3d 40 62 27 3e
       0.02683893 -0.11210597 0.035554282 0.16346073
000320 5e b8 01 be af 53 63 3c 18 d1 3b 3d 8e 19 86 3e
       -0.12667987 0.013874932 0.045853704 0.26191372
000330 e7 1d 24 be b0 bc 3c 3d 71 7d eb 3c 71 81 21 be
       -0.16027032 0.046078384 0.028746339 -0.15772034
000340 ae f3 d2 bd f0 65 8f bd 52 7f 62 bd d0 0e 89 bc
       -0.103003845 -0.07001865 -0.055297203 -0.016730696
000350 fb 43 18 3e b5 0f 0a bd f1 76 10 bd d7 9b 9b bd
       0.14869682 -0.033706386 -0.03526968 -0.075980835
000360 9c e5 44 3e 68 80 81 be 1d ee a4 3d 83 64 a2 be
       0.19228214 -0.2529328 0.08053229 -0.3171731
000370 8a ce 0f 3e 81 a5 8d be ac e1 3a 3e 77 82 eb 3d
       0.14043632 -0.27665332 0.1825015 0.114994936
000380 3d d7 c8 bd 4c cf e4 3e 2f a9 a9 3b e7 16 10 3e
       -0.098066784 0.44689405 0.005177639 0.14071237
000390 a7 42 6e be c7 c1 97 bd 1e b8 c9 3e 89 38 6d bd
       -0.23267613 -0.07410007 0.39398283 -0.057915244
0003a0 83 16 82 be b9 db ce bd 51 57 05 3e 78 31 a4 3d
       -0.254078 -0.101005025 0.1302159 0.08017248
0003b0 c3 e9 d2 bc 7e 2f 9b 3d 82 69 e1 3d 29 d5 82 bb
       -0.025746232 0.07577418 0.11006452 -0.003992696
0003c0 79 02 38 3d b0 0d 6c be ac 92 a8 3c 2a 85 72 bd
       0.044924233 -0.23052096 0.020577751 -0.059209026
0003d0 9e a2 ea 3d f1 00 fb 3c f9 4d 25 be 36 5a c2 bd
       0.11456798 0.030640097 -0.16143025 -0.094898626
0003e0 87 da a4 3d b3 76 ec bd 5a 93 bd bc 59 36 4b 3e
       0.08049493 -0.115460776 -0.023141552 0.1984495
0003f0 9a 22 29 be 41 58 c2 bd cd 9c be be 3f 36 f0 bc
       -0.16517106 -0.09489489 -0.37229005 -0.029322742

fc2.bias f4 [64]
000000 63 78 40 bd fb 07 8f bd e2 fc ee 3d 2a a2 9f 3d
       -0.04698981 -0.06983944 0.11669327 0.07794602
000010 0e 52 bc 3e b6 fd fc bd 1d 11 11 bd 4d 72 c1 3c
       0.36781353 -0.12353079 -0.03541671 0.023614073
000020 6f aa 91 3d c6 a6 d0 3e 78 b0 b2 bd 33 5e 3c 3e
       0.07112586 0.40752238 -0.08725065 0.18395309
000030 ec 6a 9d 3e 88 51 e0 bd d7 2d b8 bd cc 83 17 3e
       0.30745637 -0.10953051 -0.08993118 0.1479637
000040 63 b6 14 bc 2f d1 cf bd 71 a8 3a bc 10 e0 0a 3e
       -0.0090766875 -0.101473205 -0.011392699 0.13562036
000050 5d 46 84 3e e1 cc cc 3e f2 80 9b bd 1f 66 c4 bd
       0.25834933 0.4000006 -0.07592954 -0.095897906
000060 61 21 0b be 97 23 df bd 7e 44 bb 3d 80 d0 c1 bd
       -0.13586952 -0.1089546 0.09143923 -0.09463596
000070 6b b1 6a bd 4f 64 94 3d 48 19 ba bb 4d 03 13 bd
       -0.057298105 0.07245695 -0.0056792833 -0.03589182
000080 7f bf 18 be 76 ee 89 3d 4d 41 86 3d 51 53 cb bc
       -0.149168 0.06734936 0.06555424 -0.024820002
000090 3a 7c 8b 3d bd 62 f0 bd 51 59 97 3e da ed 2f bd
       0.06810804 -0.11737583 0.2956033 -0.042951442
0000a0 c5 98 9e bd 89 1f e4 3e a3 61 28 3e f2 c0 84 bd
       -0.07743982 0.4455531 0.16443495 -0.06482114
0000b0 10 70 01 3e 81 3c ab bd aa 0d 85 3e 09 90 1e be
       0.12640405 -0.083611496 0.25986987 -0.15484633
0000c0 cc 5a ab 3d f2 43 58 bd d3 fe 08 be e6 ba 2b 3e
       0.083669275 -0.052799173 -0.13378458 0.16770515
0000d0 d5 94 c1 bd ae b6 91 bd 52 fe 32 3e 25 81 0b bd
       -0.094522156 -0.071149215 0.17479828 -0.03405871
0000e0 16 6f fe bd 60 74 b0 bd 2b ba 7f bc 0d 98 81 bc
       -0.12423532 -0.08615947 -0.015608351 -0.015819574
0000f0 36 19 94 3d 4f a6 47 3e cd 38 26 3d dc 79 b4 bd
       0.07231371 0.19497035 0.040581513 -0.08812305

fc3.weight f4 [4, 64]
000000 6a e0 21 3b 98 4d fc 3d 8f c4 63 3e 1a 23 1b 3e
       0.0024700412 0.12319487 0.2224295 0.15150109
000010 6d 8a 50 3e 6c 19 e4 bd 29 7e 0c 3c 68 63 ed 3c
       0.20365305 -0.11137661 0.008575001 0.028978065
000020 2f ec 9b 3d b8 f0 16 3e b7 98 66 3d be de 8a 3e
       0.07613408 0.14740264 0.056297984 0.27123064
000030 46 aa 02 3e 0c 0b 27 3e b6 ef bb bc e9 0f 43 be
       0.12760267 0.16312808 -0.022941452 -0.19049038
000040 01 f1 09 3a 94 ff 4a bc 06 b9 28 3e 05 44 32 3e
       0.00052620476 -0.012390036 0.16476831 0.1740876
000050 f2 c6 9f 3d 33 eb 14 3e 79 3c 34 3e 94 9e 60 be
       0.07801618 0.14542846 0.17601193 -0.21935493
000060 a9 49 57 bc ec e0 46 3d 8b 59 a8 be 6d e0 ad bd
       -0.013140121 0.048554346 -0.32880816 -0.084900714
000070 28 57 6a bd 99 6e ad 3e ce de 28 be 58 52 89 3e
       -0.057212025 0.33873442 -0.16491243 0.26820636
000080 93 06 37 be 14 86 c8 3e 11 7d 84 3d 86 a6 6b 3a
       -0.17873602 0.39164793 0.06469167 0.00089893525
000090 25 e4 51 3e 64 1c 99 bd 7b 15 b5 3d 85 a0 8b bc
       0.20497186 -0.07476118 0.08841988 -0.017044315
0000a0 d4 46 9d 3e 69 ca f8 3d 2a 04 0f 3e 66 5d 29 3e
       0.307181 0.12147982 0.13966432 0.16539535
0000b0 69 94 b1 3d 1f 90 5f bd 54 44 2d 3e 9c 17 dd 3d
       0.08670885 -0.054580804 0.16920596 0.10795519
0000c0 c6 91 ba bc fc e1 f0 3d 40 b0 a6 bd ca 44 b6 3e
       -0.022774588 0.11761853 -0.08139086 0.35599357
0000d0 f0 36 dc bd 2b 48 a4 3c 11 c1 00 3e fd 17 e9 3d
       -0.10752666 0.020053944 0.12573649 0.113815285
0000e0 46 7a f7 be b2 20 78 be 69 7f 0c 3e 97 dc b0 3e
       -0.48335475 -0.24231222 0.13720478 0.34543297
0000f0 02 33 1e be ad 58 f3 3d 01 7e e4 3e ed c3 03 bd
       -0.15449145 0.11882148 0.44627383 -0.03216927
000100 68 4a 8d 3e 47 06 2c 3e e5 a8 5b 3e 39 81 9b 3e
       0.2759583 0.1679927 0.21451147 0.30372027
000110 80 73 d0 3d 1f 97 8b 3d fb b0 a3 3d 87 29 d4 bd
       0.1017828 0.068159334 0.07992741 -0.10359483
000120 7d ad e9 3d 35 cf fc 3d 34 42 7a 3e 62 a2 33 3e
       0.114100434 0.12344209 0.24439317 0.17542413
000130 8d 12 7e 3d 69 74 cc 3d e7 b0 43 bd a5 20 91 3b
       0.06202941 0.09983141 -0.04777613 0.0044289404
000140 de 6c 7e 3d bf 15 28 bc 51 fd 78 3e ae 4a fd 3d
       0.062115543 -0.010259091 0.24315383 0.1236776
000150 26 97 07 3e e5 dc 3a 3e 2e 7b 08 bd fc 03 1b be
       0.13241252 0.18248327 -0.0333206 -0.15138239
000160 e0 15 66 3e 21 66 12 3e cc 2a ae 3d e1 94 d0 ba
       0.22469282 0.14296772 0.085042566 -0.001591351
000170 04 74 3d be 14 38 bc 3e 6e 1b 7c 3d bd e3 6d 3e
       -0.18501288 0.36761534 0.061549596 0.23231407
000180 cb e1 f6 bd a7 0a 95 3e e5 9a 02 3e 70 01 c8 bd
       -0.12054785 0.2910969 0.127544 -0.09765899
000190 9a bd 0d 3e da 7d 1c bd 8c 3b 9d 3d 48 ed e9 3d
       0.13841859 -0.03820596 0.07677373 0.11422211
0001a0 c0 12 8b 3e 4a 58 1a 3e 70 8a 18 3e 4d 10 a1 3a
       0.27162743 0.15072742 0.1489656 0.0012288183
0001b0 34 f0 8e 3d ed f7 49 be 53 d0 1e 3e e0 37 9f bd
       0.06979409 -0.19723482 0.15509157 -0.07774329
0001c0 d3 04 fc 3c 7a ff 83 3e 1b e5 4a bd 71 fb 7a 3e
       0.03076402 0.2578085 -0.0495349 0.2450998
0001d0 16 26 6b bd 30 79 86 3d d3 70 fd 3d 5c 37 18 3e
       -0.05740937 0.065660834 0.12375035 0.14864868
0001e0 7b cb 03 bd 57 53 c3 bd d5 73 d8 3d ed 63 af 3e
       -0.032176476 -0.0953738 0.10568968 0.34255925
0001f0 3c 11 80 be f8 10 c7 3d 21 29 17 3e 39 07 c1 bb
       -0.2501315 0.097200334 0.14761783 -0.0058907536
000200 fe 80 cd 3d 21 ff 8b 3e a9 d9 0c 3e e5 62 b1 3e
       0.10034369 0.27343085 0.13754906 0.34645763
000210 5c 57 2a 3e 55 39 d9 bd 8c 52 4c 3e d6 0f 8e 3e
       0.16634887 -0.10606638 0.19953364 0.27746457
000220 79 0b a2 3d ec 6e bc 3d 4b 72 3f 3e 10 4a b3 3e
       0.079123445 0.09200844 0.18695943 0.35017443
000230 a1 c3 46 3e 0e 28 b6 bc 96 47 74 bd 32 2b 37 3e
       0.19410564 -0.022235896 -0.059638582 0.17887571
000240 52 be b7 3d e7 fb 73 bd 00 8f e8 3b b9 1a 31 3d
       0.089718476 -0.059566405 0.007097125 0.043238375
000250 e0 d8 ac 3d d3 d7 61 3e a5 c7 28 be 2b 77 0e bc
       0.08439803 0.22054987 -0.16482408 -0.008695404
000260 23 9b fe 3d 5a 92 ab 3e 9d 32 63 be 75 c9 93 bc
       0.12431934 0.33510095 -0.22187276 -0.018040398
000270 76 b5 00 be df 86 bc 3e 21 47 88 be e6 87 9c bd
       -0.12569222 0.36821648 -0.26616767 -0.07643108
000280 a7 43 61 be 68 df 77 3e aa 8d 2a 3e c5 14 5d 3e
       -0.21998464 0.24206316 0.16655603 0.21589954
000290 22 12 7b 3e 80 71 d5 bd 5a 27 11 3e 91 83 88 bd
       0.24518636 -0.10422039 0.14175168 -0.06665719
0002a0 3b a5 be 3e 86 8b 1f 3e 7b b1 2e 3e d2 04 14 3e
       0.37235436 0.15580568 0.17059891 0.14454964
0002b0 15 47 04 3e 71 40 9a be 00 fe 00 3e 69 89 0b 3e
       0.1291774 -0.3012729 0.12596893 0.13626637
0002c0 cd 67 5e 3e b3 b4 86 bd dd b5 26 3d 2b 6f 9d 3e
       0.21719284 -0.065774344 0.040700782 0.30748877
0002d0 13 86 36 bd 95 eb 1a 3e 07 cf bf 3d d1 b7 e6 3d
       -0.044561457 0.1512893 0.09365659 0.11265529
0002e0 33 d9 10 bd c8 6c a0 bd d6 d3 d8 3e dd cd de 3c
       -0.035363387 -0.078332484 0.42349118 0.027197773
0002f0 53 d4 55 be 4e 66 06 3e 2d 1b cf 3c 88 f6 86 be
       -0.20881777 0.13124964 0.025281513 -0.26359963
000300 09 89 36 3e ba d2 d1 3e 1f b8 4e 3d 6f 4c bc bd
       0.17825712 0.40981084 0.05046856 -0.09194266
000310 21 d2 c3 3d f3 fb 86 3e 48 b2 2f 3d 77 96 4d 3d
       0.09561563 0.26364097 0.04289463 0.050192323
000320 af da 20 3e 91 ea 3e 3e 62 6f cf 3e 1b 5c b5 3d
       0.15708421 0.18644167 0.40514666 0.08855458
000330 3e 8c ee 3d 52 b2 c5 3e 8b 7d 6f 3d 2a f0 db 3d
       0.11647843 0.3861261 0.058469336 0.10739167
000340 16 a5 88 3e 13 27 5d be 23 c6 a8 3e 9e 00 18 3e
       0.2668845 -0.21596937 0.32963666 0.14843985
000350 e5 a2 90 3d 2a 3e 51 3e cf bc 33 be 89 fd af 3d
       0.0706232 0.2043387 -0.17552494 0.0859328
000360 bc ed 2a be 38 15 1d be 66 fc ef bc bc 4c 1f 3d
       -0.16692251 -0.15340126 -0.029295158 0.03889154
000370 37 05 06 3e a9 cd 05 3d 19 58 7f be f4 fc 3a 3e
       0.13087927 0.032666836 -0.2493595 0.18260556
000380 68 42 f6 bd d4 11 6f 3e ed 0a 9c 3c c7 3f 88 bd
       -0.12024385 0.23346645 0.019048179 -0.066527896
000390 85 20 4b 3d ef 4d de 3d a6 cb 23 3e 06 6e 68 3e
       0.04959156 0.108547084 0.15995654 0.2269822
0003a0 f5 1a 19 3e 11 8d 46 3e 2c 87 69 3e cc e9 70 bd
       0.1495169 0.1938975 0.2280547 -0.058816716
0003b0 f3 3e 19 3e 2b 94 5d be 28 01 e6 3d 29 a1 ac 3a
       0.1496542 -0.21638553 0.11230689 0.0013170588
0003c0 6a f8 13 3e de 30 6f 3d 05 ba 11 be 5d 1d b9 3e
       0.14450231 0.058396213 -0.14231117 0.36155215
0003d0 ff 79 64 be 2b fb 18 be 49 bd 6c 3d 47 d3 5b 3e
       -0.22312163 -0.14939563 0.057797704 0.21467315
0003e0 38 db 06 be be f8 44 be 35 91 d2 bc c3 83 10 3d
       -0.13169563 -0.19235513 -0.025704006 0.035281908
0003f0 af d4 ca bd 35 a6 13 3e 90 71 4b 3e c3 fb 6e 3d
       -0.099038474 0.14418872 0.1986754 0.058345567

fc3.bias f4 [4]
000000 5c e2 8d 3e ae a3 87 3e ea 31 f9 3d 9c d4 30 3e
       0.2771176 0.26492065 0.121677235 0.17268604
