MARL_Collaboration_Competition/checkpoint_actor.pth (torch, 170278 bytes, 18 tensors)

fc1.weight f4 [256, 24]
0.24103467 0.09711334 -0.06504038 0.19751789 0.080032036 -0.49097365 0.022336803 0.11548833
0.19301458 0.09952282 0.03770762 -0.25697073 0.13549642 -0.35015574 0.03825691 -0.24342562
0.30713344 0.026625842 0.115305126 -0.3386287 0.12539041 -0.22966899 0.17707202 -0.40587074
0.18720408 -0.0076341582 0.04024801 -0.06259344 0.34892085 -0.36495936 -0.00043890876 -0.13003404
0.17722668 -0.023268722 -0.08249727 -0.009392535 0.38283587 -0.4315727 -0.033750087 -0.05649875
0.22234622 -0.10368431 -0.014135251 -0.21660618 0.40050766 -0.5522576 -0.06922811 -0.20817322
0.2013179 0.07183249 -0.14380062 -0.043437965 0.26582783 -0.27423075 -0.15267567 -0.092606276
0.37399793 0.23658958 0.097072646 0.094304405 0.20004487 -0.44910908 0.12920628 0.1325305
0.31217587 0.045432724 0.02485666 -0.35068887 0.41412786 -0.23476325 0.08611262 -0.2360548
-0.03481028 -0.37624457 0.083557904 0.007449425 0.24922496 0.022454888 0.08515225 0.074680656
-0.11558503 -0.51146716 0.20529728 0.12258165 0.1551875 0.02100833 0.17182261 0.08900261
-0.061464377 -0.4451627 -0.3234576 0.36759874 0.10627368 -0.19124757 -0.27081993 0.2894445
0.18983556 0.30670005 -0.08112751 -0.07675649 0.1428566 -0.6310538 -0.11515509 -0.15411982
0.30825737 0.2230348 -0.010029674 -0.2165268 0.2196948 -0.5076843 -0.061131824 -0.29228473
0.2910281 0.19046508 -0.08638963 -0.24525678 0.18504871 -0.39503688 -0.061562162 -0.24521866
-0.0060631842 0.097889416 0.19541338 -0.36061302 0.3046746 -0.39634398 0.16710672 -0.29702258
0.019341493 0.00958469 0.1479046 -0.02472954 0.34833026 -0.11134711 0.16467263 0.038539816
0.00023774915 0.1430085 -0.1090574 0.31287163 0.045052636 0.10561767 -0.08720514 0.28403068
-0.117235556 0.53346115 -0.04595095 0.37384674 0.27505302 -0.12079648 -0.03399277 0.41521627
-0.04197341 0.63677627 0.12529919 0.08785217 0.37094727 0.15720518 0.011764877 0.03461404
0.027297162 0.5439388 0.045531012 -0.2568116 0.28889963 0.64512074 0.09502353 -0.23316713
0.08115897 -0.48982435 0.008209058 -0.18451317 -0.025075877 0.3099955 -0.05567309 -0.12563454
0.040544737 -0.4609944 0.19280241 -0.25065875 -0.049354006 0.3023743 0.1882729 -0.27246684
0.18239212 -0.67261124 0.0887045 -0.55166566 -0.18189304 0.24751009 0.034946002 -0.6094681
0.271897 0.38726053 -0.008226945 0.2947873 -0.23522326 -0.059294414 -0.02768596 0.40880704
0.4233646 0.22741245 -0.038472313 -0.009970902 -0.23535675 0.19188793 -0.041947395 0.017068783
0.3431903 0.2087603 -0.22766222 -0.047142565 -0.16177872 0.33487025 -0.16829418 -0.06529654
0.12337708 -0.13845761 0.009927924 -0.24913894 -0.012648416 0.05743475 -0.0046951943 -0.27228817
0.17392057 -0.30355987 0.414145 -0.27491874 -0.030826187 0.16250667 0.41359484 -0.16919142
0.048102878 -0.44419712 0.19413182 -0.3229902 -0.04082361 0.35842267 0.15737037 -0.30145982
0.41228375 -0.2634396 -0.11982019 -0.028934771 0.43847126 -0.1046476 -0.15322836 -0.031265326
0.27634156 -0.48115483 -0.010346462 -0.094992705 0.5607856 0.16605945 -0.0055859177 -0.059272066
00000000: cbd1 763e 5ce3 c63d e433 85bd 2142 4a3e
00000010: d6e7 a33d e660 fbbe acfb b63c 2585 ec3d
00000020: 9da5 453e 9fd2 cb3d 4e73 1a3d ab91 83be
00000030: 93bf 0a3e 9d47 b3be 47b3 1c3d 9144 79be
00000040: 9840 9d3e 701e da3c 1825 ec3d be60 adbe
00000050: 5866 003e 592e 6bbe 5e52 353e 4ace cfbe
00000060: 6db2 3f3e f627 fabb 19db 243d fd30 80bd
00000070: c1a5 b23e f4db babe 561d e6b9 a527 05be
00000080: e97a 353e 0c9e bebc 54f4 a8bd 26e3 19bc
00000090: 1003 c43e 19f7 dcbe 883d 0abd 3c6b 67bd
000000a0: baae 633e 7158 d4bd 8a97 67bc 03ce 5dbe
000000b0: 570f cd3e c160 0dbf 78c7 8dbd 5c2b 55be
000000c0: 4826 4e3e ea1c 933d 7840 13be 02ec 31bd
000000d0: 961a 883e f967 8cbe 0357 1cbe 5ca8 bdbd
000000e0: a87c bf3e 8a44 723e 06ce c63d ab22 c13d
000000f0: 90d8 4c3e a0f1 e5be a74e 043e 13b6 073e
00000100: 84d5 9f3e aa17 3a3d 32a0 cb3c 7e8d b3be
00000110: 9108 d43e c765 70be d05b b03d 59b8 71be
00000120: 3995 0ebd 21a3 c0be 6820 ab3d 4e1a f43b
00000130: d434 7f3e 50f3 b73c 4e64 ae3d 2cf2 983d
00000140: d8b7 ecbd 83ef 02bf 7339 523e 170c fb3d
00000150: 79e9 1e3e a919 ac3c 44f2 2f3e 0047 b63d
00000160: 12c2 7bbd 5eec e3be 3c9c a5be e735 bc3e
00000170: 04a6 d93d 67d6 43be e9a8 8abe 1232 943e
00000180: 4164 423e ca07 9d3e 2e26 a6bd 8232 9dbd
00000190: 0049 123e be8c 21bf 6fd6 ebbd 96d1 1dbe
000001a0: e9d3 9d3e 3c63 643e 8053 24bc 34b9 5dbe
000001b0: acf7 603e 99f7 01bf 5d65 7abd 58a6 95be
000001c0: a301 953e 4709 433e 0ced b0bd 9824 7bbe
000001d0: 697d 3d3e 4642 cabe 9b28 7cbd 9a1a 7bbe
000001e0: adad c6bb 3f7a c83d 721a 483e 45a2 b8be
000001f0: 4ffe 9b3e 99ed cabe 061e 2b3e 5813 98be
00000200: 0d72 9e3c 1b09 1d3c 4e74 173e 9b95 cabc
00000210: 5858 b23e f409 e4bd f19f 283e eddb 1d3d
00000220: 4d4c 7939 d270 123e 7c59 dfbd b630 a03e
00000230: 1d89 383d 144e d83d 9c98 b2bd 786c 913e
00000240: 3219 f0bd e990 083f 1037 3cbd d768 bf3e
00000250: c0d3 8c3e 2564 f7bd 013c 0bbd 3a97 d43e
00000260: 4fec 2bbd c503 233f 6e4e 003e d7eb b33d
00000270: cdec bd3e 65fa 203e 78c1 403c 74c7 0d3d
00000280: 4c9e df3c 933f 0b3f ba7e 3a3d cf7c 83be
00000290: a7ea 933e a226 253f b29b c23d 5dc3 6ebe
000002a0: ad36 a63d 42ca fabe 497f 063c 05f1 3cbe
000002b0: ed6b cdbc bbb7 9e3e 7709 64bd 57a6 00be
000002c0: 3d12 263d 7507 ecbe ff6d 453e 5856 80be
000002d0: 6d27 4abd ced0 9a3e 9cca 403e c680 8bbe
000002e0: 00c5 3a3e 4030 2cbf b4aa b53d f639 0dbf
000002f0: 2b42 3abe 4973 7d3e 8a23 0f3d 1a06 1cbf
00000300: 1536 8b3e 0347 c63e 4fca 06bc 5cee 963e
00000310: 5ede 70be b3de 72bd abcd e2bc 284f d13e
00000320: 3fc3 d83e cfde 683e 2595 1dbd ff5c 23bc
00000330: 5c01 71be 457e 443e 08d1 2bbd d5d3 8b3c
00000340: a4b6 af3e 43c5 553e 4920 69be 9018 41bd
00000350: 52a9 25be 1d74 ab3e 4f55 2cbe 31ba 85bd
00000360: 1fad fc3d d5c7 0dbe bba8 223c 471e 7fbe
00000370: 4d3b 4fbc b340 6b3d 25da 99bb 5b69 8bbe
00000380: 3c18 323e 336c 9bbe d00a d43e 26c2 8cbe
00000390: 3387 fcbc 2668 263e b4c2 d33e 8440 2dbe
000003a0: 8607 453d ce6d e3be 7eca 463e f95e a5be
000003b0: a836 27bd 2d83 b73e b325 213e f158 9abe
000003c0: db16 d33e 8ee1 86be 4a64 f5bd 9d08 edbc
000003d0: 4e7f e03e 7b51 d6bd e5e7 1cbe 1210 00bd
000003e0: a47c 8d3e ed59 f6be 3584 29bc 898b c2bd
000003f0: a58f 0f3f 7d0b 2a3e 130a b7bb 44c7 72bd

fc1.bias f4 [256]
-0.53359485 -0.111051485 -0.42524254 0.17088541 -0.71803 -0.27091512 0.08335838 -0.16066462
-0.23157592 0.06904408 -0.38683942 -0.15883549 0.21515444 -0.15792958 -0.1328903 -0.3847954
-0.42508414 -0.21596181 0.028843202 0.19078095 0.09754488 -0.10531462 -0.925086 -0.41159752
-0.13703874 0.004485489 -0.33839247 0.1983705 -0.08053745 0.01733441 -0.07381098 0.041174248
-0.4828198 -0.19026342 0.009542553 -0.36182415 -0.3922269 -0.2265585 -0.028331041 -0.15051974
-0.28666398 -0.0024995585 -0.13056846 -0.4387111 -0.08020927 -0.30552962 -0.5000581 0.043577876
-0.13886102 -0.72216105 -0.26142734 -0.20184399 -0.24552885 -0.5243864 -0.12113479 -0.047398202
-0.115855865 -0.06198883 -0.09074271 -0.3458213 -0.46763045 -0.17295477 -0.39128372 -0.27593076
-0.29579 -0.1769361 -0.01309268 -0.24658807 -0.38872594 -0.29409274 -0.2007025 -0.4265134
0.17766117 -0.26147887 -0.4908936 -0.25235844 -0.18882456 0.021168428 0.059218604 -0.1820047
-0.043987088 -0.33471617 -0.11140469 -0.27172127 -0.4883002 -0.20741193 -0.47252858 -0.2344298
0.007791741 0.06369988 -0.20628376 -0.13035649 -0.3623616 -0.09611721 0.013380369 -0.40974241
-0.5076752 -0.07126113 -0.43294677 -0.3088993 -0.63390577 -0.3186934 -0.35737413 -0.30504826
-0.096637286 -0.64790565 -0.1289708 -0.2162474 -0.27397394 -0.14056227 -0.095325 -0.15533704
-0.21112153 -0.3744238 -0.077959254 -0.6980295 -0.18039976 -0.5933936 -0.24044637 -0.43111125
0.17190255 -0.13248223 -0.22066541 0.1137496 -0.14674571 -0.0022742373 0.075164884 -0.06366969
-0.53841907 -0.3219841 0.27917135 0.34200692 -0.27821237 -0.004265237 -0.022744542 -0.0798678
-0.35384518 -0.18373565 -0.25917718 0.17593455 -0.1711276 -0.32599172 -0.36758018 -0.50891715
-0.27029938 -0.3611732 -0.3085999 -0.24643885 -0.15716697 -0.49397638 -0.2574448 0.17749609
0.45611826 -0.51662874 -0.40063366 -0.24032353 -0.1346988 0.09438642 0.005744933 -0.3998993
-0.23724473 -0.23254219 -0.10079526 -0.2095577 -0.13440862 -0.19188015 -0.4946463 0.31600967
0.025546862 -0.2453507 -0.35001612 -0.25713494 -0.04862128 -0.19361086 0.0027746016 -0.0958508
-0.0501423 -0.33578822 -0.41830316 -0.39186957 -0.65500665 -0.44570237 -0.21993686 -0.30992085
-0.34335488 -0.5627308 -0.11082277 -0.36247912 -0.09548244 -0.013199351 -0.23151523 -0.14992629
-0.4110847 0.041392542 -0.025608214 -0.023748385 0.053772297 -0.2745534 -0.35005015 -0.2647453
-0.2907186 0.1210233 -0.4755719 -0.46382314 -0.44600785 -0.045994014 -0.50793725 -0.15803272
-0.41893676 -0.22493444 -0.34897625 -0.45392412 -0.19400692 -0.41465566 -0.24533318 -0.2719999
-0.31229 -0.46768138 -0.10428922 -0.42076185 -0.9533364 0.01977003 0.00082203175 -0.42142174
0.13758823 -0.33276227 -0.5481219 0.02592446 -0.5539938 -0.3331058 -0.022811452 -0.29422197
-0.27645943 -0.20895335 -0.20123428 0.0670412 -0.04939628 -0.3215091 0.050384365 -0.269935
0.032652445 -0.19676048 -0.17998141 0.20162709 -0.15204309 0.0062931664 0.09134242 -0.15840615
0.53433174 -0.10623264 -0.1927994 -0.40826395 -0.26243332 0.24342702 -0.35554552 -0.11948319
00000000: ac99 08bf f66e e3bd 64b9 d9be 96fc 2e3e
00000010: d0d0 37bf 63b5 8abe ccb7 aa3d 4485 24be
00000020: 3d22 6dbe fc66 8d3d d10f c6be c5a5 22be
00000030: 7251 5c3e 4bb8 21be 6514 08be e703 c5be
00000040: a1a4 d9be 1825 5dbe 9448 ec3c 155c 433e
00000050: 9cc5 c73d 31af d7bd 70d2 6cbf e9bc d2be
00000060: e253 0cbe 02fb 923b c741 adbe a321 4b3e
00000070: d2f0 a4bd e500 8e3c 362a 97bd 54a6 283d
00000080: 2834 f7be 6ad4 42be 5e58 1c3c 0441 b9be
00000090: f7d1 c8be f4fe 67be 8016 e8bc d921 1abe
000000a0: 9fc5 92be a2cf 23bb bdb3 05be be9e e0be
000000b0: c244 a4bd 616e 9cbe cf03 00bf b77e 323d
000000c0: 9531 0ebe 8cdf 38bf ced9 85be 31b0 4ebe
000000d0: ea6b 7bbe 303e 06bf 8415 f8bd 9e24 42bd
000000e0: d745 edbd 00e8 7dbd 50d7 b9bd 7d0f b1be
000000f0: 426d efbe 0e1b 31be 5756 c8be cc46 8dbe
00000100: c971 97be bd2e 35be ae82 56bc 9581 7cbe
00000110: 1607 c7be 5393 96be f584 4dbe f75f dabe
00000120: cfec 353e 8fe0 85be 6856 fbbe 2035 81be
00000130: 3a5b 41be 6969 ad3c 358f 723d 715f 3abe
00000140: ce2b 34bd eb5f abbe 2428 e4bd 0d1f 8bbe
00000150: 7c02 fabe cb63 54be 44ef f1be 5e0e 70be
00000160: dc51 ff3b 1575 823d 0d3c 53be 2c7c 05be
00000170: 7687 b9be 1ad9 c4bd 5639 5b3c c2c9 d1be
00000180: 00f7 01bf 5bf1 91bd 33ab ddbe 0d28 9ebe
00000190: a647 22bf c82b a3be bef9 b6be 492f 9cbe
000001a0: c5e9 c5bd 25dd 25bf ec10 04be f56f 5dbe
000001b0: 5046 8cbe 8eef 0fbe c139 c3bd ac10 1fbe
000001c0: 3e30 58be 7ab4 bfbe 1aa9 9fbd 10b2 32bf
000001d0: b7ba 38be a5e8 17bf 9337 76be 9dba dcbe
000001e0: 3907 303e 6ca9 07be 1df6 61be 8df5 e83d
000001f0: 8244 16be 5f0b 15bb 0cf0 993d 4165 82bd
00000200: d5d5 09bf 1adb a4be 8cef 8e3e 881b af3e
00000210: da71 8ebe 67c3 8bbb c352 babc bb91 a3bd
00000220: 322b b5be 3325 3cbe dfb2 84be 3028 343e
00000230: 133c 2fbe 63e8 a6be 7833 bcbe 6548 02bf
00000240: ae64 8abe b2eb b8be ce00 9ebe 775a 7cbe
00000250: 61f0 20be 79ea fcbe cecf 83be 89c1 353e
00000260: 5588 e93e c841 04bf db1f cdbe 5f17 76be
00000270: 7bee 09be ab4d c13d fe3f bc3b 9abf ccbe
00000280: 48f0 72be 8a1f 6ebe bf6d cebd 4b96 56be
00000290: 6aa2 09be 3b7c 44be 4842 fdbe 05cc a13e
000002a0: a747 d13c 373d 7bbe 5035 b3be 31a7 83be
000002b0: 1b27 47bd ed41 46be 17d6 353b 6d4d c4bd
000002c0: 0362 4dbd 6fec abbe d52b d6be 21a3 c8be
000002d0: 84ae 27bf 1a33 e4be 2137 61be f2ad 9ebe
000002e0: 36cc afbe 200f 10bf 0cf7 e2bd dd96 b9be
000002f0: 4c8c c3bd 1742 58bc 5412 6dbe 4786 19be
00000300: b279 d2be 3a8b 293d 51c8 d1bc f98b c2bc
00000310: 5740 5c3d 4392 8cbe c639 b3be b28c 87be
00000320: 11d9 94be 10db f73d 297e f3be 3a7a edbe
00000330: 245b e4be 3864 3cbd 2d08 02bf 54d3 21be
00000340: e17e d6be 3755 66be 04ad b2be be68 e8be
00000350: c0a9 46be bf4d d4be 9f38 7bbe 9243 8bbe
00000360: 7ae4 9fbe ef73 efbe 9695 d5bd 196e d7be
00000370: db0d 74bf c2f4 a13c 9e7d 573a 97c4 d7be
00000380: eee3 0c3e d15f aabe b851 0cbf 885f d43c
00000390: 8ad2 0dbf d88c aabe 15df babc 43a4 96be
000003a0: 178c 8dbe def7 55be 5c10 4ebe e64c 893d
000003b0: c153 4abd d79c a4be d65f 4e3d ec34 8abe
000003c0: 92be 053d 947b 49be 0c4d 38be 5577 4e3e
000003d0: 2fb1 1bbe e836 ce3b bc11 bb3d 3935 22be
000003e0: f7c9 083f 8090 d9bd 356d 45be f907 d1be
000003f0: a95d 86be ef44 793e 100a b6be 9ab3 f4bd

bn1.weight f4 [256]
0.80025303 1.0778935 0.85264015 0.4504039 0.6606935 0.4778442 0.796652 0.8595694
0.6432092 0.51261526 1.3091414 0.94292957 0.93184566 0.91385317 0.8727203 0.6828454
0.25507963 0.883511 0.34179047 0.5549873 0.76890963 0.5557611 1.0274963 1.393461
0.84776497 0.66135687 0.61708087 0.36271134 0.7137134 1.6238437 0.66550446 1.6047739
0.49856296 0.4819235 0.13521227 0.97158885 0.73790413 0.43883264 1.1073881 0.8797018
0.5481852 0.49052745 0.8819056 0.4766238 0.6545691 0.5005611 0.86091936 0.6934539
0.87622726 0.46545985 0.56776166 0.6271684 1.1264149 1.0977057 0.34835923 0.41638443
0.82989174 0.62961054 0.73741066 1.0691546 1.083797 0.5171717 0.49090752 0.6492763
0.36002696 0.6266666 0.12994283 0.85067546 0.70600706 0.79768723 0.87835336 0.9851869
0.66933143 0.6932319 1.3127916 0.79975545 0.7757493 0.90299016 0.58153844 0.6171833
0.5864916 0.8691891 0.61323285 0.69106585 0.2955604 0.7934111 0.78376263 2.0990903
1.3962164 0.5030913 0.7444231 0.73426 0.8485962 0.3734761 0.2907345 1.0404661
0.65853506 2.1721318 0.9776025 0.6428181 0.71217847 0.6059491 0.3426364 0.39146823
1.2712543 0.8203411 0.90022844 0.6812441 0.81651664 0.8475015 0.7621817 0.8505986
0.55319655 0.8644826 0.6108144 1.3476886 0.5615923 0.884115 0.33208406 0.62399
0.6446118 0.86140233 0.5086626 0.7836991 1.2682658 0.5115346 0.6450484 1.517542
1.558024 0.8642306 0.80299294 0.5573738 1.1557641 0.8124844 0.7886127 0.8093683
1.3712885 0.6438729 1.0265257 0.5299622 0.71674603 1.0600717 1.8224875 0.66312826
0.6617863 1.4258764 0.6020923 0.94929427 0.3993269 1.3601326 0.37813827 0.6681779
0.3284748 0.48336723 0.60568935 1.315508 0.5435276 0.31333035 0.3260828 0.88303286
0.7791383 0.87765193 0.5983895 0.64317036 0.53509474 0.7380867 0.52748096 0.47823092
1.1562728 1.0305343 0.5409532 0.9956516 1.3333118 0.14131112 0.6664376 0.812787
0.57458043 0.35933185 0.5497401 0.8293547 0.95355767 0.83729935 0.6086219 0.93461704
0.77369463 1.0729349 1.1024755 0.92868817 0.95663375 1.0472615 0.545273 0.49405852
1.393644 0.65588933 0.77520275 1.3243878 0.7944133 0.64873713 0.84469426 1.4051608
1.778974 0.6779023 0.74530566 1.0493201 0.74888074 0.7995013 1.0858719 0.7747361
0.51120627 0.93228334 0.965914 0.8208507 0.86691433 1.0779649 0.8887306 0.7972924
0.5358642 0.9680028 1.4733198 0.99916923 1.9292461 0.64729613 0.8191465 0.4650458
1.1078712 0.6694243 0.9655254 0.51744163 0.2614343 0.70615697 0.6095344 0.9094489
0.8085094 0.7877453 0.25195053 0.73115915 0.40788117 0.9431658 0.7534732 0.7763414
0.909159 0.49713355 0.7898326 0.2408457 0.94750243 0.54478836 0.79691535 0.5801885
0.5576248 0.8756063 0.64000875 0.49343023 0.827802 0.88349324 0.55604744 1.1633419
00000000: 62dd 4c3f 6af8 893f a046 5a3f 579b e63e
00000010: 3623 293f ffa7 f43e 63f1 4b3f bd0c 5c3f
00000020: 5ca9 243f c13a 033f f291 a73f d563 713f
00000030: 708d 6e3f 48f2 693f 996a 5f3f f5ce 2e3f
00000040: cc99 823e c72d 623f 29ff ae3e a613 0e3f
00000050: 43d7 443f 5c46 0e3f 0085 833f ee5c b23f
00000060: 2007 593f af4e 293f 03f9 1d3f 4db5 b93e
00000070: ecb5 363f 1cda cf3f 805e 2a3f 3b69 cd3f
00000080: a543 ff3e adbe f63e 1675 0a3e 0cba 783f
00000090: 49e7 3c3f acae e03e e5be 8d3f 2334 613f
000000a0: de55 0c3f 6a26 fb3e 91c4 613f 0908 f43e
000000b0: d791 273f c624 003f 3665 5c3f 3286 313f
000000c0: 6e50 603f c150 ee3e d458 113f 1c8e 203f
000000d0: 5d2e 903f 9f81 8c3f 245c b23e 5730 d53e
000000e0: c973 543f 282e 213f f2c6 3c3f 0fda 883f
000000f0: dcb9 8a3f 5d65 043f 3b58 fb3e f936 263f
00000100: 7455 b83e 396d 203f bc0f 053e dec5 593f
00000110: e1bc 343f 3b35 4c3f c4db 603f 3535 7c3f
00000120: 4e59 2b3f a577 313f 8e09 a83f c6bc 4c3f
00000130: 8297 463f 5d2a 673f b4df 143f baff 1d3f
00000140: 5024 163f 2d83 5e3f d4fc 1c3f b1e9 303f
00000150: b153 973e fd1c 4b3f aba4 483f 7f57 0640
00000160: 38b7 b23f 97ca 003f 8392 3e3f 77f8 3b3f
00000170: 9a3d 593f 4238 bf3e 27db 943e fe2d 853f
00000180: c195 283f 3504 0b40 2844 7a3f ba8f 243f
00000190: 5451 363f 7b1f 1b3f 0a6e af3e 866e c83e
000001a0: 76b8 a23f e001 523f 5f75 663f 0366 2e3f
000001b0: 3c07 513f dcf5 583f 571e 433f d4c0 593f
000001c0: 4a9e 0d3f bb4e 5d3f 555e 1c3f 0f81 ac3f
000001d0: 83c4 0f3f 5c55 623f ec06 aa3e cfbd 1f3f
000001e0: 4705 253f dd84 5c3f b637 023f 81a0 483f
000001f0: 8956 a23f eef3 023f e421 253f d13e c23f
00000200: 556d c73f 373e 5d3f f290 4d3f 0db0 0e3f
00000210: 14f0 933f fafe 4f3f 86e2 493f c332 4f3f
00000220: 6286 af3f dbd4 243f 3265 833f 9aab 073f
00000230: ab7c 373f 6eb0 873f 4547 e93f c6c2 293f
00000240: d46a 293f 1e83 b63f b922 1a3f f304 733f
00000250: 9374 cc3e d318 ae3f 579b c13e b50d 2b3f
00000260: d92d a83e e97b f73e 750e 1b3f 9162 a83f
00000270: a024 0b3f d66c a03e 53f4 a63e 710e 623f
00000280: 9c75 473f ccad 603f 0e30 193f d0a6 243f
00000290: f8fb 083f 40f3 3c3f fe08 073f afda f43e
000002a0: bf00 943f 8ce8 833f e97b 0a3f 06e3 7e3f
000002b0: f6a9 aa3f ddb3 103e a89b 2a3f cf12 503f
000002c0: b417 133f 58fa b73e c4bb 0c3f 9750 543f
000002d0: 5b1c 743f 4059 563f a5ce 1b3f 1043 6f3f
000002e0: da10 463f ee55 893f eb1d 8d3f 82be 6d3f
000002f0: f3e5 743f aa0c 863f 0397 0b3f 3df5 fc3e
00000300: ed62 b23f 5de8 273f b073 463f 8a85 a93f
00000310: ac5e 4b3f a313 263f e23d 583f 4fdc b33f
00000320: 6cb5 e33f 018b 2d3f 5acc 3e3f 1f50 863f
00000330: a6b6 3f3f 1eac 4c3f dafd 8a3f 1b55 463f
00000340: 6ade 023f 1faa 6e3f 2446 773f 4523 523f
00000350: 19ee 5d3f c1fa 893f d983 633f 5b1b 4c3f
00000360: 652e 093f 08cf 773f be95 bc3f 8ec9 7f3f
00000370: 89f1 f63f 33b5 253f 96b3 513f 7c1a ee3e
00000380: b9ce 8d3f 645f 2b3f ac2c 773f 0e77 043f
00000390: b7da 853e b4c6 343f 720a 1c3f a5d1 683f
000003a0: 79fa 4e3f ada9 493f a9ff 803e 3f2d 3b3f
000003b0: cdd5 d03e 5073 713f 9fe3 403f 4fbe 463f
000003c0: a5be 683f 4a88 fe3e 7832 4a3f 41a0 763e
000003d0: 858f 723f 4077 0b3f a502 4c3f 3c87 143f
000003e0: 80c0 0e3f bc27 603f 9dd7 233f e3a2 fc3e
000003f0: d5ea 533f 9d2c 623f 2059 0e3f 63e8 943f

bn1.bias f4 [256]
0.71819645 0.7808754 0.6410557 0.63387036 0.18132563 0.20397191 0.2399749 0.49267334
0.309411 0.35532486 0.65912557 0.6753659 0.23803887 0.56999284 0.77493566 0.5670946
0.061669853 0.2840701 -0.2564275 -0.017683588 0.6816117 0.31851012 0.5566395 0.29223818
0.43111616 0.5100019 0.8427432 -0.11148453 0.0215629 0.5020562 0.1883207 0.010568372
0.131076 0.27806622 0.07440567 0.34313658 0.06903638 0.36210972 0.6220248 0.013857585
-0.19467182 0.12471732 -0.11786379 -0.042960986 0.3699205 0.27130544 0.32595244 0.14747137
0.5296016 -0.15090565 0.26414272 0.49533013 0.33239317 -0.6720558 -0.30583984 0.25661907
0.15833282 0.3618412 0.15493654 0.5148743 0.612368 -0.08247914 -0.00013902347 0.45726556
-0.12740724 0.5231832 -0.40516493 0.7963434 0.15812626 0.32028535 0.34084457 0.059143104
0.84612775 0.08878208 0.115678065 0.80385906 0.9239094 0.23595178 0.14215381 0.39587867
0.6338199 0.36186823 0.316796 0.67641497 -0.053818837 0.2784484 0.0050414233 0.7228647
0.32487515 -0.31918773 0.2692736 0.44432116 0.55222183 -0.3037661 -0.07878757 0.27378726
0.53023934 0.35388076 0.18125345 0.46302634 0.27749047 0.37733543 -0.18386915 0.1114664
0.527813 0.33408052 0.44018334 0.13569713 0.69336134 0.65192395 0.4641268 0.6136195
-0.21049891 0.56091535 0.45585093 0.39531577 0.22010288 0.094996855 0.13111104 0.028063104
0.04167007 0.6256076 -0.034885816 0.06892171 0.5572107 0.16613875 0.37031415 0.0785524
0.44765487 0.6592209 0.53962964 -0.123246215 0.5006736 0.1309448 -0.14946245 0.28107953
0.7035857 0.53457326 0.32220587 -0.6320876 -0.007067014 0.5119103 0.69347376 0.42859283
-0.36105946 0.33664402 -0.011167511 0.3341803 -0.38657248 0.25143003 0.08699392 0.53046733
-0.38053077 0.71783626 0.1858023 0.6860659 0.4821191 0.32976955 0.43440244 0.8028317
0.03148524 0.54737145 0.37238297 -0.16468944 -0.14525177 0.35318798 0.053046938 0.19436096
0.37314707 0.42364118 0.23482409 0.67027426 0.15410462 -0.37498182 -0.6823204 0.49092203
-0.27381065 -0.050850876 0.28197142 0.5401899 0.50544786 0.3665505 0.0534538 0.4399424
0.41157484 0.6153652 0.8241207 0.35552397 0.9409234 0.46662328 0.4004065 0.19942057
0.28377125 0.2701341 0.48917064 0.60427696 0.7081351 0.08461321 0.24600072 0.5423703
0.31975275 0.3213744 0.2710597 0.2562102 0.14098321 -1.0824885 0.25703487 0.24813433
0.067536786 0.49509308 0.36514464 0.4469766 0.25730464 0.41059178 0.5504869 0.40579745
0.16948192 0.27677688 0.5780961 0.38624057 0.039525304 0.44517338 0.43443102 -0.1580722
0.5263764 0.09142992 0.8076968 0.3746139 0.035000205 0.3408177 -0.2854763 0.38399643
0.6344236 0.4410054 -0.22235951 0.7996667 -0.08307836 0.6382631 0.08965972 0.55014443
0.10792063 0.612361 0.57264626 0.107624985 0.72176737 0.44405723 0.11651205 0.6323393
0.08822894 0.58787465 0.5792034 -0.03319625 0.75139594 -0.45644897 0.21776442 0.6306603
00000000: b9db 373f 73e7 473f 3a1c 243f 5445 223f
00000010: 6dad 393e 03de 503e fbbb 753e ae3f fc3e
00000020: 1e6b 9e3e 24ed b53e 74bc 283f c8e4 2c3f
00000030: 76c0 733e 0deb 113f 2f62 463f 1d2d 113f
00000040: 8799 7c3d a371 913e 774a 83be 2cdd 90bc
00000050: 1b7e 2e3f c213 a33e ed7f 0e3f 3ea0 953e
00000060: 42bb dc3e 7c8f 023f 05be 573f 0052 e4bd
00000070: aea4 b03c c186 003f 24d7 403e f726 2d3c
00000080: c938 063e b25e 8e3e 0062 983d 99af af3e
00000090: f262 8d3d 7266 b93e 043d 1f3f ed0a 633c
000000a0: 0d58 47be cb6b ff3d 9262 f1bd dcf7 2fbd
000000b0: 3866 bd3e 8ce8 8a3e 3de3 a63e bc02 173e
000000c0: f893 073f 0387 1abe b73d 873e e99b fd3e
000000d0: 702f aa3e d90b 2cbf 0a97 9cbe 9363 833e
000000e0: 0022 223e 4043 b93e afa7 1e3e cdce 033f
000000f0: 26c4 1c3f d3ea a8bd d4c6 11b9 b61e ea3e
00000100: 0b77 02be 56ef 053f c771 cfbe 29dd 4b3f
00000110: daeb 213e 71fc a33e 2e83 ae3e 0a40 723d
00000120: d49b 583f 61d3 b53d 9fe8 ec3d b5c9 4d3f
00000130: 5485 6c3f 589d 713e c590 113e 9cb0 ca3e
00000140: 0542 223f cb46 b93e 1633 a23e 8829 2d3f
00000150: 2471 5cbd ca90 8e3e 8632 a53b a90d 393f
00000160: 0956 a63e 936c a3be 3bde 893e 107e e33e
00000170: 695e 0d3f 3b87 9bbe 615b a1bd d82d 8c3e
00000180: c4bd 073f dc2f b53e 819a 393e ca11 ed3e
00000190: 3b13 8e3e 1c32 c13e 3248 3cbe 7f48 e43d
000001a0: c11e 073f 9a0c ab3e b65f e13e 30f4 0a3e
000001b0: 2180 313f 7de4 263f 07a2 ed3e 2b16 1d3f
000001c0: 078d 57be 2698 0f3f 4b65 e93e d466 ca3e
000001d0: a662 613e b68d c23d f941 063e 98e4 e53c
000001e0: 3cae 2a3d d227 203f 6ee4 0ebd d326 8d3d
000001f0: 5ca5 0e3f 4720 2a3e d199 bd3e 15e0 a03d
00000200: 0533 e53e b3c2 283f 2b25 0a3f 8368 fcbd
00000210: 252c 003f 6516 063e af0c 19be a8e9 8f3e
00000220: 311e 343f cbd9 083f 2bf8 a43e 7ed0 21bf
00000230: 6992 e7bb 8e0c 033f 7f87 313f 8570 db3e
00000240: c9dc b8be 9b5c ac3e f0f7 36bc ae19 ab3e
00000250: d4ec c5be 70bb 803e de29 b23d b5cc 073f
00000260: eed4 c2be 1ec4 373f f542 3e3e 04a2 2f3f
00000270: 51d8 f63e 8ed7 a83e ff69 de3e 6186 4d3f
00000280: abf6 003d 8920 0c3f fba8 be3e 59a4 28be
00000290: e1bc 14be 0ed5 b43e bf47 593d 8f06 473e
000002a0: 220d bf3e 7fe7 d83e ba75 703e 1897 2b3f
000002b0: 9acd 1d3e 9efd bfbe 8dac 2ebf 225a fb3e
000002c0: e930 8cbe 0249 50bd 8f5e 903e e349 0a3f
000002d0: 0865 013f 82ac bb3e 5ff2 5a3d 2140 e13e
000002e0: f0b9 d23e 9388 1d3f 93f9 523f 3d07 b63e
000002f0: 5be0 703f 3fe9 ee3e 1502 cd3e e834 4c3e
00000300: 774a 913e 044f 8a3e 9374 fa3e e5b1 1a3f
00000310: 5848 353f b149 ad3d 9de7 7b3e c8d8 0a3f
00000320: a2b6 a33e 2f8b a43e 56c8 8a3e fc2d 833e
00000330: e75d 103e fc8e 8abf 139a 833e ed16 7e3e
00000340: ba50 8a3d d77c fd3e 3df4 ba3e 1eda e43e
00000350: 6fbd 833e 1639 d23e b6ec 0c3f afc4 cf3e
00000360: ab8c 2d3e b3b5 8d3e 1bfe 133f 53c1 c53e
00000370: 49e5 213d c4ed e33e be6d de3e aedd 21be
00000380: 9bc0 063f 9c3f bb3d 38c5 4e3f 65cd bf3e
00000390: 605c 0f3d a87f ae3e f329 92be 2e9b c43e
000003a0: 9669 223f 76cb e13e 36b2 63be f5b6 4c3f
000003b0: fd24 aabd 3665 233f 849f b73d 44d6 0c3f
000003c0: 7e05 dd3d b1c3 1c3f f298 123f 7d6a dc3d
000003d0: bfc5 383f 785b e33e df9d ee3d fde0 213f
000003e0: 60b1 b43d f47e 163f ad46 143f cbf8 07bd
000003f0: 7c5b 403f aeb3 e9be a3fd 5e3e f472 213f

bn1.running_mean f4 [256]
0.53322244 0.37349546 0.5610885 5.8074193 0.09378763 3.4260452 5.136903 5.1861296
1.1391934 7.9064784 0.76290065 0.20461561 2.6783228 1.7078223 0.36578032 2.711461
2.2037077 1.1242694 14.177538 7.260179 1.7971709 5.7928576 4.643632 0.28542492
0.9596895 3.474613 3.1538477 14.233639 9.644073 0.82945776 0.24105047 0.23633648
0.332268 0.3949781 4.1724777 0.873449 1.419357 2.416537 1.6511742 5.7703905
2.413312 2.0820248 0.68545663 3.358683 7.2697263 1.9275391 0.507817 2.2433984
2.3589857 0.3599794 2.5196335 0.7695047 0.62607485 6.9715915 0.8551308 3.775488
0.100374624 1.0755873 2.919443 2.8055968 0.33522862 0.077364035 6.058046 2.057246
3.7817752 2.9494364 9.480075 3.739787 5.3592315 0.80106735 2.254854 6e-45
7.7514687 1.0437127 0.22000429 6.4895024 3.5886931 0.89308864 2.8829732 3.074735
4.6011934 4.133241 4.9710956 0.4805244 2.9927742 2.2958608 6e-45 0.9289842
0.33963493 15.694565 0.79776853 3.578993 0.050966732 12.719206 12.512647 1.7156756
0.55675757 0.13648391 0.64043146 2.618554 14.47458 2.2608154 1.7238986 1.9483036
1.3984265 0.7019217 6.0787187 0.47215596 5.974033 2.7004519 1.0931982 3.5073254
3.4942672 0.70978713 4.223002 8.375902 2.559165 6.4852476 0.63220274 2.173874
16.077166 3.8673043 3.6053824 18.628902 1.0265567 10.0304165 5.122838 8.7192545
2.8865194 1.9121892 2.6368642 12.971079 2.2068527 3.3403819 1.1439216 1.8867409
7.3593388 4.6311173 0.20536244 14.389874 3.4861922 1.6102533 0.2575566 1.6052928
11.450232 9.226342 1.3016812 1.9262065 3.945961 0.19915248 2.4408545 6.2891607
13.302384 0.026858741 0.042265996 0.5679959 5.793356 6.112771 1.8007753 3.1900625
0.5183222 3.861513 3.1231568 0.77283317 2.2722301 0.68926394 0.5380718 6.531627
4.6627736 0.2075911 2.8206863 5.6681886 3.079569 5.9583783 3.7476141 0.6174137
1.2457209 7.4771976 2.222717 1.1868595 1.7509011 0.78356457 0.060772013 0.5925868
1.8987144 5.1879673 4.2111945 4.692985 7.796701 8.541053 2.98018 1.3874956
4.930845 0.7816974 0.23772718 0.30920547 2.666375 0.60459405 7.8858976 0.47357678
6.79969 5.677869 0.60638154 0.19365524 0.32086137 3.992675 3.114585 1.2460572
0.57250094 5.7380633 5.0669603 0.11351423 0.6346139 1.4465517 1.2578784 1.606812
2.1775897 0.432579 0.6476115 0.5296888 5.280908 3.2242603 3.5555394 0.28033286
2.7763798 0.99330574 0.3592125 16.373209 0.33448917 1.273356 2.6344464 2.2114618
7.295661 2.168879 10.579347 2.3013024 6.981228 0.3604771 0.41995946 3.25897
0.46603766 6.998222 0.5284462 3.641674 4.413739 7.6880736 3.5701003 4.1969514
14.355897 0.06135644 5.8444796 1.6170859 1.5904251 12.041637 1.4414862 5.3935184
00000000: 4481 083f cc3a bf3e 7fa3 0f3f 61d6 b940
00000010: bb13 c03d 5344 5b40 8261 a440 c6f4 a540
00000020: 17d1 913f df01 fd40 754d 433f c186 513e
00000030: a469 2b40 ec99 da3f 8f47 bb3e 9488 2d40
00000040: 8c09 0d40 0fe8 8f3f 32d7 6241 6353 e840
00000050: b209 e63f 175f b940 a298 9440 3723 923e
00000060: 36ae 753f 0f60 5e40 a4d8 4940 fcbc 6341
00000070: 1f4e 1a41 5857 543f efd5 763e 3102 723e
00000080: 081f aa3e 923a ca3e f084 8540 5b9a 5f3f
00000090: 7dad b53f 8ba8 1a40 ad59 d33f 0aa7 b840
000000a0: b473 1a40 e53f 0540 167a 2f3f aaf4 5640
000000b0: 99a1 e840 9ab9 f63f 4b00 023f d793 0f40
000000c0: 9ff9 1640 384f b83e ad41 2140 43fe 443f
000000d0: 7146 203f 4717 df40 dae9 5a3f 98a1 7140
000000e0: 3691 cd3d d8ac 893f 27d8 3a40 e68e 3340
000000f0: 16a3 ab3e 0971 9e3d 83db c140 eba9 0340
00000100: 9b08 7240 91c3 3c40 63ae 1741 ac58 6f40
00000110: d37e ab40 c012 4d3f 874f 1040 0400 0000
00000120: 080c f840 6198 853f ce48 613e 01aa cf40
00000130: 26ad 6540 75a1 643f a282 3840 75c8 4440
00000140: fa3c 9340 8343 8440 3713 9f40 4b07 f63e
00000150: 9d89 3f40 62ef 1240 0400 0000 e9d1 6d3f
00000160: a1e4 ad3e f01c 7b41 8f3a 4c3f 390e 6540
00000170: 7ec2 503d de81 4b41 cd33 4841 429b db3f
00000180: aa87 0e3f 70c2 0b3e 51f3 233f 6496 2740
00000190: e197 6741 33b1 1040 b6a8 dc3f 0362 f93f
000001a0: a4ff b23f 24b1 333f dd84 c240 6dbe f13e
000001b0: 472b bf40 34d4 2c40 ebed 8b3f 0578 6040
000001c0: 13a2 5f40 9cb4 353f d522 8740 b203 0641
000001d0: 5cc9 2340 2687 cf40 0ad8 213f c020 0b40
000001e0: 099e 8041 ea81 7740 96be 6640 fe07 9541
000001f0: 3666 833f 967c 2041 4aee a340 1182 0b41
00000200: bcbc 3840 9ec2 f43f 62c2 2840 8a89 4f41
00000210: 133d 0d40 d1c8 5540 066c 923f ba80 f13f
00000220: b47f eb40 1d32 9440 884a 523e ed3c 6641
00000230: c61d 5f40 c81c ce3f 75de 833e 3c7a cd3f
00000240: 2634 3741 199f 1341 7d9d a63f ef8d f63f
00000250: a08a 7c40 a1ee 4b3e f636 1c40 ce40 c940
00000260: 91d6 5441 dd06 dc3c 1c1f 2d3d 2e68 113f
00000270: 2c63 b940 d29b c340 ce7f e63f fc29 4c40
00000280: c4b0 043f 0723 7740 cde1 4740 65d8 453f
00000290: 386c 1140 9a73 303f 13bf 093f 1703 d140
000002a0: 7135 9540 c392 543e 2086 3440 cd61 b540
000002b0: a917 4540 09ab be40 e9d8 6f40 d30e 1e3f
000002c0: c873 9f3f 3445 ef40 ff40 0e40 03eb 973f
000002d0: 871d e03f b097 483f 13ec 783d c5b3 173f
000002e0: 1309 f33f d403 a640 1bc2 8640 ef2c 9640
000002f0: 937e f940 27a8 0841 45bb 3e40 7599 b13f
00000300: 7bc9 9d40 521d 483f c16e 733e 2e50 9e3e
00000310: e3a5 2a40 adc6 1a3f 4659 fc40 a878 f23e
00000320: 0f97 d940 1ab1 b540 d23b 1b3f 8f4d 463e
00000330: f147 a43e fd87 7f40 5c55 4740 cd7e 9f3f
00000340: 6c8f 123f 379e b740 8a24 a240 267a e83d
00000350: 0e76 223f 9b28 b93f 2902 a13f 04ac cd3f
00000360: a15d 0b40 ff7a dd3e dec9 253f af99 073f
00000370: 33fd a840 485a 4e40 f58d 6340 ca87 8f3e
00000380: 35b0 3140 4949 7e3f b3ea b73e 55fc 8241
00000390: 2a42 ab3e 54fd a23f c59a 2840 9788 0d40
000003a0: 0e76 e940 eace 0a40 0145 2941 8a48 1340
000003b0: 3866 df40 7490 b83e ed04 d73e f792 5040
000003c0: 7d9c ee3e 6ff1 df40 4048 073f 3011 6940
000003d0: 5a3d 8d40 b304 f640 867c 6440 6d4d 8640
000003e0: c1b1 6541 e450 7b3d fa05 bb40 acfc ce3f
000003f0: 0d93 cb3f 8caa 4041 9f82 b83f b497 ac40

bn1.running_var f4 [256]
3.714511 2.1539636 5.210543 78.14954 0.4916557 32.859344 28.666094 46.480743
7.96617 142.56053 4.996816 1.0755056 20.339172 21.752499 2.1640134 17.241531
22.282904 8.784532 58.765553 54.924698 17.59872 55.835957 36.267612 2.2966716
6.415741 28.418777 42.461643 197.20598 49.24793 4.044937 1.8512794 1.0893161
2.0958834 2.2531679 55.92245 8.88766 16.390087 19.115442 13.384886 52.22818
38.477154 17.557083 5.800976 43.897606 102.91999 12.720847 4.600627 20.874115
29.874537 2.529933 27.367802 3.38708 4.848736 74.00195 7.656043 46.832336
0.5534953 10.364885 30.5998 13.355506 1.6681201 0.37752634 100.88384 17.093414
41.562313 20.511906 80.09585 23.392338 28.93399 6.3812695 12.495554 6e-45
72.3097 10.250335 1.5622909 49.725437 33.03718 5.84438 28.799923 43.25773
59.32583 25.507046 26.630877 3.683845 39.537548 22.675358 6e-45 1.1638765
1.8821477 67.12344 6.392236 47.991287 0.26300848 69.52983 72.324455 11.385087
3.3839374 0.7733764 5.6086617 26.881765 35.565384 19.211401 17.416252 20.185684
6.8813825 5.2077184 56.181683 3.7012777 50.827293 18.613655 9.772316 37.1513
33.307728 7.037784 35.707405 9.520885 27.357101 67.18498 3.918112 20.165983
54.022385 29.22655 30.040192 36.969036 7.53991 41.22629 52.359604 90.68531
18.330273 15.046033 10.553553 21.662432 14.1012945 34.03568 10.392714 12.362684
78.422295 34.542316 1.1093551 81.698 33.33982 9.765292 1.9489151 12.938925
55.95678 25.129131 15.548309 17.65309 40.5011 1.3102593 29.294224 44.539837
52.94667 0.1105865 0.18129177 3.0518873 43.360104 76.29115 17.828796 21.858725
3.2382073 31.144548 48.172905 6.1804214 24.402403 5.2072477 4.7457547 65.81182
27.566751 1.2935201 27.174051 23.449593 6.8024573 106.69527 47.40563 5.4407268
9.071995 50.728943 19.0076 13.045176 10.616147 6.004166 0.25636432 3.508451
15.657702 41.7658 35.861862 18.846739 63.52433 105.241486 39.116245 16.082054
39.835472 6.4449167 1.4121794 1.6036129 11.0852785 5.448647 34.822468 2.022216
24.991268 35.5158 5.00796 0.917373 2.1526103 26.706278 19.783768 10.918513
3.7932034 41.378704 27.697842 0.54380465 5.0360436 9.1868305 13.435673 12.984966
23.227262 4.034643 3.1636546 3.3078036 26.723503 11.317559 34.333904 2.0603154
13.748363 11.558151 1.7574565 40.719227 2.126708 10.967256 34.689453 15.28949
41.500195 25.461548 52.28003 31.619799 119.76042 2.095108 2.847383 23.908384
2.6550624 110.202515 2.8160799 43.82708 50.56323 59.975544 27.970242 58.505028
38.129623 0.18605341 38.82127 19.941326 12.9355 17.546282 16.706907 42.395645
00000000: 8cba 6d40 8ada 0940 c5bc a640 914c 9c42
00000010: 4cba fb3e f86f 0342 2954 e541 48ec 3942
00000020: ddea fe40 7f8f 0e43 ebe5 9f40 2baa 893f
00000030: a0b6 a241 1e05 ae41 327f 0a40 a8ee 8941
00000040: 6343 b241 718d 0c41 ed0f 6b42 e4b2 5b42
00000050: 2eca 8c41 0558 5f42 0912 1142 abfc 1240
00000060: c04d cd40 a859 e341 b9d8 2942 bb34 4543
00000070: e1fd 4442 2070 8140 b9f6 ec3f b66e 8b3f
00000080: f422 0640 e733 1040 97b0 5f42 db33 0e41
00000090: e61e 8341 6dec 9841 7e28 5641 a8e9 5042
000000a0: 9be8 1942 e874 8c41 98a1 b940 2697 2f42
000000b0: 09d7 cd42 9788 4b41 5638 9340 30fe a641
000000c0: 0dff ee41 6cea 2140 42f1 da41 ebc5 5840
000000d0: d828 9b40 0001 9442 4efe f440 5054 3b42
000000e0: deb1 0d3f 92d6 2541 64cc f441 27b0 5541
000000f0: f684 d53f 224b c13e 87c4 c942 50bf 8841
00000100: cf3f 2642 6218 a441 1331 a042 8223 bb41
00000110: d078 e741 5c33 cc40 caed 4741 0400 0000
00000120: 919e 9042 5f01 2441 26f9 c73f d9e6 4642
00000130: 1326 0442 2905 bb40 3e66 e641 ea07 2d42
00000140: a64d 6d42 6e0e cc41 090c d541 1ec4 6b40
00000150: 7326 1e42 2267 b541 0400 0000 e8f9 943f
00000160: 37ea f03f 343f 8642 338d cc40 14f7 3f42
00000170: 0ca9 863e 460f 8b42 1fa6 9042 5129 3641
00000180: 6e92 5840 fffb 453f 287a b340 db0d d741
00000190: f442 0e42 f3b0 9941 7c54 8b41 487c a141
000001a0: 4934 dc40 a1a5 a640 0bba 6042 bce1 6c40
000001b0: 264f 4b42 c4e8 9441 685b 1c41 ee9a 1442
000001c0: 1d3b 0542 8735 e140 62d4 0e42 8c55 1841
000001d0: 58db da41 b65e 8642 59c2 7a40 ef53 a141
000001e0: ec16 5842 f9cf e941 5052 f041 4be0 1342
000001f0: f146 f140 b9e7 2442 3c70 5142 e15e b542
00000200: 66a4 9241 8dbc 7041 5adb 2841 a94c ad41
00000210: e79e 6141 8924 0842 8e48 2641 8ecd 4541
00000220: 37d8 9c42 552b 0a42 59ff 8d3f 6065 a342
00000230: fa5b 0542 a33e 1c41 0d76 f93f d605 4f41
00000240: bed3 5f42 7608 c941 e0c5 7841 8739 8d41
00000250: 2001 2242 94b6 a73f 925a ea41 cb28 3242
00000260: 64c9 5342 2d7b e23d 8da4 393e 1f52 4340
00000270: bf70 2d42 1295 9842 60a1 8e41 abde ae41
00000280: ca3e 4f40 0928 f941 0eb1 4042 03c6 c540
00000290: 1f38 c341 c6a1 a640 39dd 9740 a79f 8342
000002a0: b588 dc41 1192 a53f 7564 d941 c498 bb41
000002b0: bbad d940 fa63 d542 5d9f 3d42 6f1a ae40
000002c0: e426 1141 70ea 4a42 910f 9841 0ab9 5041
000002d0: bddb 2941 2122 c040 2f42 833e 768a 6040
000002e0: f385 7a41 2e10 2742 8c72 0f42 1fc6 9641
000002f0: ea18 7e42 a47b d242 0977 1c42 0ca8 8041
00000300: 8657 1f42 c23c ce40 4bc2 b43f 3043 cd3f
00000310: 4d5d 3141 515b ae40 354a 0b42 fd6b 0140
00000320: 1eee c741 2e10 0e42 3541 a040 f5d8 6a3f
00000330: 5ec4 0940 75a6 d541 2845 9e41 3bb2 2e41
00000340: d8c3 7240 cb83 2542 2e95 dd41 c836 0b3f
00000350: 4527 a140 42fd 1241 84f8 5641 6cc2 4f41
00000360: 6fd1 b941 cc1b 8140 5179 4a40 0eb3 5340
00000370: bcc9 d541 b914 3541 eb55 0942 35dc 0340
00000380: 4bf9 5b41 30ee 3841 56f4 e03f 7de0 2242
00000390: fc1b 0840 e179 2f41 00c2 0a42 c0a1 7441
000003a0: 3300 2642 40b1 cb41 c01e 5142 59f5 fc41
000003b0: 5685 ef42 4016 0640 863b 3640 5f44 bf41
000003c0: 8bec 2940 b067 dc42 a73a 3440 ee4e 2f42
000003d0: bf40 4a42 f5e6 6f42 0ec3 df41 2605 6a42
000003e0: bc84 1842 c984 3e3e fb48 1b42 d687 9f41
000003f0: cff7 4e41 c95e 8c41 bfa7 8541 2495 2942

fc2.weight f4 [128, 256]
-0.05538008 0.0018282736 0.12932532 -0.089530796 0.1554534 -0.1454726 0.04330756 -0.33242998
0.1400018 -0.3272569 -0.08168564 0.33065808 -0.13815983 -0.33230394 -0.15886225 -0.1979837
0.053978585 0.006664078 -0.12259746 0.0696918 -0.13240813 0.0025408245 -0.12101041 -0.020337168
0.181168 0.0843073 -0.18601468 -0.1697542 0.06799289 -0.109344855 -0.424276 -0.22602189
0.18497711 0.10667351 0.11895784 -0.010366513 0.05959045 0.00084108557 -0.09131904 0.29709518
0.12347646 -0.21345393 -0.13531429 0.15146871 -0.37329486 0.20234862 -0.33505797 0.27015358
-0.04607085 0.46930158 -0.051972512 0.39149705 0.38367316 0.29202884 -0.20360136 -0.01706401
0.43803063 0.18451485 0.057576932 -0.64209723 -0.14533822 0.11612692 -0.03022673 0.018957425
0.18489736 0.10126887 0.067871824 -0.031449858 0.16833773 -0.05517499 -0.09987469 -0.22274289
-0.3619766 0.35874197 -0.47272414 0.025303517 -0.10628467 -0.1512901 0.010091604 -0.21960819
-0.071941175 0.049493466 -0.34123874 -0.14186199 0.29828283 0.097586386 0.1854162 0.3769305
0.29555246 -0.2303691 0.012960645 -0.16276945 0.04083961 -0.19437721 -0.08561433 -0.08985754
-0.20994575 0.05191063 0.06420179 -0.017503295 -0.3183281 -0.08561599 0.34607166 -0.12925316
0.24594034 -0.14335601 0.112205945 0.3283801 0.07507084 0.0816913 -0.02313682 0.45184833
-0.028951174 0.31779665 0.12699312 -0.76160043 0.32057342 -0.044695426 0.31774196 0.15053107
-0.13438794 0.020541308 0.22857577 -0.1310003 -0.21312127 -0.19336312 -0.3014021 -0.10335017
0.18286742 0.022351185 -0.09706941 -0.35632166 0.012899216 0.6163381 0.21520999 -0.0010495962
-0.1363013 -0.3333132 -0.2512568 -0.08945678 0.16349004 0.1386865 -0.089428045 0.30356628
-0.12876289 -0.100614585 0.3190883 0.24918608 0.12805866 -0.38347816 0.024492657 -0.05551907
0.054535624 -0.05815809 -0.022233894 0.3097601 0.1202515 0.035485443 0.06313964 0.33221412
-0.20032032 -0.013646307 0.03879671 0.3833766 0.04970721 0.29724225 0.08090723 -0.16484141
0.107484885 -0.075091496 0.019092806 -0.095321 0.052716456 -0.036337957 0.17159206 0.121490784
-0.037417915 0.13494718 -0.09568422 -0.019140244 0.20334224 -0.31093377 0.05804401 -0.23116663
-0.0077864537 -0.1515225 -0.12945719 0.039334714 -0.14310971 0.1419578 -0.3581312 0.030325463
0.02310343 0.5317826 -0.52859634 -0.10930637 0.2263829 -0.27021646 -0.29201218 0.29691422
0.22004677 0.19186775 0.37950736 -0.29698253 0.18241006 0.09608942 -0.018155439 0.26334134
0.12511897 0.08724991 -0.08067499 -0.29568586 -0.42246354 -0.3224607 -0.19623064 -0.055175982
0.09233208 -0.12644179 -0.004867501 0.1359205 0.036255095 -0.17961264 -0.2550793 0.061053544
-0.12405858 0.4062314 0.31622416 -0.10738166 0.060395546 0.1133684 0.24430609 -0.24958524
-0.15700126 0.12947801 -0.2757578 -0.16550474 -0.21040273 -0.15224855 0.17069079 -0.2499161
0.008545282 -0.1950817 -0.12911738 0.14497884 0.16545396 0.0712214 0.32857618 0.07115013
-0.029444257 -0.2127525 0.06189299 0.13237298 -0.14602476 -0.41942692 0.012955926 -0.277801
00000000: 39d6 62bd afa2 ef3a db6d 043e ec5b b7bd
00000010: 2d2f 1f3e c5f6 14be 4563 313d 4334 aabe
00000020: a25c 0f3e 378e a7be cd4a a7bd 044c a93e
00000030: c579 0dbe be23 aabe c9ac 22be 3dbc 4abe
00000040: a618 5d3d 575e da3b 6114 fbbd 93ba 8e3d
00000050: ff95 07be f683 263b 4ed4 f7bd 229a a6bc
00000060: 1b84 393e 4ea9 ac3d a27a 3ebe 0cd4 2dbe
00000070: db3f 8b3d 32f0 dfbd b43a d9be 4872 67be
00000080: a46a 3d3e a477 da3d 2ba0 f33d 4fd8 29bc
00000090: 1e15 743d 4c7c 5c3a 7a05 bbbd dc1c 983e
000000a0: 3ae1 fc3d ab93 5abe d48f 0abe 9d1a 1b3e
000000b0: 8120 bfbe 7a34 4f3e b88c abbe 9251 8a3e
000000c0: cab4 3cbd 4c48 f03e 21e1 54bd 4d72 c83e
000000d0: cf70 c43e ce84 953e e07c 50be d3c9 8bbc
000000e0: 8d45 e03e 76f1 3c3e cad5 6b3d 7c60 24bf
000000f0: 8bd3 14be f3d3 ed3d 0c9e f7bc 9a4c 9b3c
00000100: bc55 3d3e 0e66 cf3d 6200 8b3d 91d1 00bd
00000110: ba60 2c3e 2cff 61bd 1a8b ccbd b616 64be
00000120: ff54 b9be 07ad b73e e608 f2be 5249 cf3c
00000130: c7ab d9bd cbeb 1abe 4157 253c f8e0 60be
00000140: e555 93bd a9b9 4a3d d8b6 aebe 4544 11be
00000150: 87b8 983e 5fdb c73d bfdd 3d3e 09fd c03e
00000160: a752 973e e1e5 6bbe e358 543c 09ad 26be
00000170: 6f47 273d d20a 47be 9156 afbd 3b07 b8bd
00000180: 05fc 56be 3ea0 543d 3a7c 833d 1263 8fbc
00000190: e7fb a2be 7057 afbd 4e30 b13e f15a 04be
000001a0: c9d7 7b3e ebcb 12be 3bcc e53d 7021 a83e
000001b0: bebe 993d c54d a73d 6e89 bdbc aa58 e73e
000001c0: 032b edbc 3eb6 a23e 7c0a 023e 3ff8 42bf
000001d0: 3322 a43e 8d12 37bd 13af a23e d124 1a3e
000001e0: fe9c 09be 3f46 a83c c40f 6a3e f124 06be
000001f0: 763c 5abe fb00 46be 6051 9abe 41a9 d3bd
00000200: 9941 3b3e d519 b73c 54cc c6bd cb6f b6be
00000210: 3c57 533c 55c8 1d3f 0260 5c3e 9b92 89ba
00000220: 9192 0bbe 07a8 aabe bba4 80be 1e35 b7bd
00000230: ef69 273e d503 0e3e 0d26 b7bd 0a6d 9b3e
00000240: 6bda 03be 050f cebd 8b5f a33e a32a 7f3e
00000250: cf21 033e 4057 c4be d3a4 c83c f767 63bd
00000260: bf60 5f3d 2d37 6ebd db23 b6bc e098 9e3e
00000270: 6b46 f63d 2f59 113d 5b4f 813d f817 aa3e
00000280: c520 4dbe c394 5fbc 4de9 1e3d f049 c43e
00000290: ca99 4b3d 2330 983e b1b2 a53d 30cc 28be
000002a0: 0921 dc3d 92c9 99bd 8468 9c3c a837 c3bd
000002b0: 36ed 573d 1cd7 14bd d4b5 2f3e 29d0 f83d
000002c0: 8743 19bd 982f 0a3e 17f6 c3bd 00cc 9cbc
000002d0: f338 503e b632 9fbe 8ebf 6d3d f2b6 6cbe
000002e0: 8225 ffbb b728 1bbe 6d90 04be 701d 213d
000002f0: 5a8b 12be 635d 113e f95c b7be 1b6d f83c
00000300: 6843 bd3c e822 083f 1752 07bf 05dc dfbd
00000310: ebd0 673e d059 8abe 9f82 95be 2405 983e
00000320: f153 613e fb78 443e ca4e c23e 180e 98be
00000330: b4c9 3a3e 88ca c43d b7ba 94bc add4 863e
00000340: 301f 003e 15b0 b23d ee38 a5bd 2364 97be
00000350: 244d d8be 9219 a5be aff0 48be 3600 62bd
00000360: 9a18 bd3d f579 01be 8f7f 9fbb be2e 0b3e
00000370: 3980 143d 60ec 37be c199 82be 4813 7a3d
00000380: 6d12 febd 90fd cf3e 22e8 a13e eaea dbbd
00000390: 5261 773d b12d e83d 602b 7a3e 4693 7fbe
000003a0: f0c4 20be e295 043e 2030 8dbe 137a 29be
000003b0: d073 57be 0be7 1bbe 91c9 2e3e 02ea 7fbe
000003c0: 8301 0c3c 7fc3 47be 5937 04be 5575 143e
000003d0: c36c 293e 86dc 913d 233b a83e 29b7 913d
000003e0: 1535 f1bc cbdb 59be 8183 7d3d c88c 073e
000003f0: 8487 15be 20bf d6be 1845 543c ef3b 8ebe

fc2.bias f4 [128]
-0.15076414 -0.14934574 -0.09327998 -0.4238789 -0.10797015 -0.19510296 0.008951198 -0.2794626
-0.24993436 -0.36231405 -0.19695096 -0.31523508 -0.5696043 -0.2948793 -0.31108025 -0.19983014
-0.32170245 -0.050829433 -0.38044497 -0.15518188 -0.2700837 -0.39942738 -0.24461572 -0.50528693
-0.049105667 -0.18998593 -0.6727918 -0.13647401 -0.26939076 -0.4363386 -0.08159388 -0.062441427
-0.22990958 -0.5551159 -0.30149075 -0.27115625 -0.13654639 -0.4069159 -0.33834606 -0.27045995
0.08681869 -0.4003742 -0.26696092 -0.368807 -0.58801347 -0.4375014 -0.21866794 -0.28824046
-0.25589964 -0.12846382 -0.5253877 -0.45367715 -0.40662554 -0.2593012 -0.0071983803 -0.34461394
-0.35703152 -0.4070586 -0.12624736 -0.0912133 -0.38952282 -0.26396194 -0.35872874 -0.41395774
-0.5894822 -0.3777775 -0.2564835 -0.46474668 -0.4701658 -0.3127631 -0.8826329 -0.2961078
-0.54000795 -0.23216031 -0.40589145 -0.3062741 -0.51373994 -0.41416842 -0.26156285 -0.3190623
-0.29976535 -0.45702317 0.00047006065 -0.1479093 -0.5235856 -0.31938982 -0.21697967 -0.28009763
0.006878133 -0.37086174 -0.24314214 -0.2557712 -0.3447952 -0.2745008 -0.2743544 -0.27769262
-0.5930867 -0.24192879 -0.25723967 -0.41025433 -0.35976535 -0.531575 -0.04915995 -0.6604575
-0.27925402 -0.3102161 -0.084191404 -0.34829792 -0.17770179 -0.20129046 -0.09259328 -0.32027277
0.2778932 -0.45996588 -0.25777873 -0.3350253 -0.26006922 -0.23743023 -0.13387135 -0.38855442
-0.33558854 -0.34959477 -0.26363868 -0.22041102 -0.2683895 -0.33903292 -0.7272051 -0.8522534
00000000: ea61 1abe 17ee 18be 9309 bfbd a806 d9be
00000010: 741f ddbd 12c9 47be 0ca8 123c b915 8fbe
00000020: cbee 7fbe 3a81 b9be 83ad 49be 7e66 a1be
00000030: 96d1 11bf 6bfa 96be e945 9fbe 46a0 4cbe
00000040: 2fb6 a4be 8632 50bd afc9 c2be 00e8 1ebe
00000050: 6948 8abe bf81 ccbe 8b7c 7abe 7c5a 01bf
00000060: 0623 49bd ac8b 42be 153c 2cbf d8bf 0bbe
00000070: 96ed 89be c667 dfbe b11a a7bd 95c2 7fbd
00000080: 6b6d 6bbe 131c 0ebf ff5c 9abe fed4 8abe
00000090: d1d2 0bbe 4857 d0be b23b adbe ba79 8abe
000000a0: ffcd b13d d9fd ccbe 1aaf 88be 45d4 bcbe
000000b0: 0d88 16bf 2f00 e0be 7dea 5fbe 4194 93be
000000c0: 4705 83be 058c 03be cf7f 06bf 5f48 e8be
000000d0: 3931 d0be 20c3 84be 64e0 ebbb 3d71 b0be
000000e0: d6cc b6be fc69 d0be fd46 01be 0ace babd
000000f0: 896f c7be 0526 87be 4bab b7be 45f2 d3be
00000100: 4ee8 16bf 0d6c c1be ce51 83be 47f3 edbe
00000110: 92b9 f0be 7c22 a0be 3bf4 61bf 719b 97be
00000120: f63d 0abf 6fbb 6dbe 01d1 cfbe f5cf 9cbe
00000130: 7684 03bf e20d d4be 91eb 85be 225c a3be
00000140: d87a 99be f1fe e9be 7972 f639 8975 17be
00000150: b509 06bf 1087 a3be eb2f 5ebe f568 8fbe
00000160: f661 e13b 97e1 bdbe 41fa 78be 71f4 82be
00000170: ff88 b0be 5e8b 8cbe 2e78 8cbe ba2d 8ebe
00000180: 88d4 17bf 2ebc 77be ebb4 83be db0c d2be
00000190: 2a33 b8be 4d15 08bf f25b 49bd be13 29bf
000001a0: 62fa 8ebe a5d4 9ebe 8b6c acbd 1b54 b2be
000001b0: 75f7 35be 161f 4ebe 8ca1 bdbd cbfa a3be
000001c0: 0448 8e3e a680 ebbe 93fb 83be 7088 abbe
000001d0: cb27 85be e920 73be 9215 09be 9bf0 c6be
000001e0: 43d2 abbe 16fe b2be a6fb 86be 6db3 61be
000001f0: 596a 89be b995 adbe 1d2a 3abf 472d 5abf

bn2.weight f4 [128]
0.54268986 0.83033186 0.8313311 1.2922688 1.1339865 0.977916 0.8920543 0.9301147
1.0079641 0.79839426 1.2123604 0.36645678 1.2481092 0.97138 1.1260594 0.7714789
1.0681144 0.85723996 0.8538588 1.079938 1.198483 0.7519256 0.80657816 1.0140704
0.6106903 0.91857255 0.868688 1.1664183 1.0875645 1.0633453 0.7769126 1.4845197
1.0506293 0.88281703 1.2109647 0.8325269 1.2953516 1.320578 1.0068724 0.8817176
0.6482129 1.0243642 1.0524815 1.0787882 1.1556016 0.8961871 1.1750784 1.1451476
1.0378008 0.7258041 0.8997523 0.9645811 0.9311293 0.77908343 1.200574 0.9350982
0.89055413 0.7782754 0.80132246 0.9393068 0.698877 0.9982244 1.0656623 1.0959553
1.2122744 1.0076636 0.91022664 1.0199367 0.89729416 1.1296914 1.11807 1.0774949
0.9343615 0.43749046 0.9563411 1.3091204 0.727777 0.5844093 0.5806012 0.90092677
0.38100278 0.97486347 0.945347 0.8910152 0.99647254 0.7964171 1.2604004 0.9748492
0.87099946 0.8557392 0.6290435 0.7992186 0.84365195 0.72525537 0.7246049 0.8863738
0.92015237 0.9730537 1.4123597 0.87668514 0.8219404 0.7199608 0.9160751 0.43126842
0.4394908 0.8738194 0.7468368 0.94511276 0.8095999 0.6189155 0.7118065 1.3968848
0.30355084 1.0796182 0.97175527 0.9148356 0.60607165 0.64251304 1.0799822 0.8175494
0.98682374 0.69981277 0.91620326 0.838468 0.72455317 1.1193092 1.0706587 1.0722479
00000000: b9ed 0a3f a190 543f 1dd2 543f 1069 a53f
00000010: 7826 913f b458 7a3f ac5d 643f ff1b 6e3f
00000020: f804 813f 9163 4c3f a02e 9b3f 39a0 bb3e
00000030: 0bc2 9f3f 5cac 783f b722 903f a47f 453f
00000040: f9b7 883f 1474 5b3f 7e96 5a3f 693b 8a3f
00000050: e467 993f 327e 403f e87b 4e3f 0fcd 813f
00000060: 3356 1c3f 9227 6b3f 5662 5e3f 324d 953f
00000070: 5035 8b3f b31b 883f bfe3 463f be04 be3f
00000080: 057b 863f 4c00 623f e400 9b3f 7c20 553f
00000090: 15ce a53f b308 a93f 32e1 803f 3fb8 613f
000000a0: 48f1 253f 5e1e 833f b7b7 863f bb15 8a3f
000000b0: c1ea 933f 856c 653f f868 963f 3294 923f
000000c0: a8d6 843f 4cce 393f 2b56 663f c9ee 763f
000000d0: 7d5e 6e3f 0372 473f 69ac 993f 9862 6f3f
000000e0: 5bfb 633f 0e3d 473f 7823 4d3f 6976 703f
000000f0: 9ae9 323f a28b 7f3f 9f67 883f 4348 8c3f
00000100: cf2b 9b3f 1ffb 803f 9d04 693f 498d 823f
00000110: 12b5 653f ba99 903f eb1c 8f3f 5aeb 893f
00000120: 5132 6f3f c0fe df3e c5d2 743f 4291 a73f
00000130: 984f 3a3f d99b 153f 48a2 143f 23a3 663f
00000140: cc12 c33e a790 793f 4302 723f 9219 643f
00000150: d318 7f3f fee1 4b3f cd54 a13f b88f 793f
00000160: d2f9 5e3f b911 5b3f ff08 213f 9799 4c3f
00000170: 93f9 573f 56aa 393f b57f 393f 65e9 623f
00000180: 1b8f 6b3f 0c1a 793f 34c8 b43f 706e 603f
00000190: b06a 523f 5a4f 383f e683 6a3f 37cf dc3e
000001a0: f004 e13e a1b2 5f3f b230 3f3f e9f2 713f
000001b0: f041 4f3f 3f71 1e3f f338 363f 1fcd b23f
000001c0: 046b 9b3e ee30 8a3f f4c4 783f aa32 6a3f
000001d0: 8327 1b3f bc7b 243f db3c 8a3f eb4a 513f
000001e0: 7ba0 7c3f ee26 333f 4c8c 6a3f d7a5 563f
000001f0: 517c 393f 8645 8f3f 580b 893f 6b3f 893f
