MARL_Collaboration_Competition/checkpoint_critic.pth (torch, 169397 bytes, 13 tensors)

fcs1.weight f4 [256, 24]
000000 70 8e 10 3e 14 b1 a5 3e ce ca 90 bd 2a 33 65 3e
       0.14116836 0.32361662 -0.07069932 0.22382799
000010 1e 8e 97 b7 a4 e0 85 be 82 fa 45 bc bd 5e 76 3e
       -1.8066781e-05 -0.2614795 -0.0120836515 0.24059577
000020 36 81 f2 3d f5 4a 97 3e 2d 32 e2 3d 5c 1d 3e bd
       0.11841051 0.29549375 0.110447265 -0.046414718
000030 76 c7 e9 3d 44 e6 e9 be c6 1f f5 3d b4 37 c9 bc
       0.11414997 -0.4568349 0.11968951 -0.024562694
000040 d5 e6 9f 3d 92 ec 5b 3e 76 34 0d 3e 35 17 75 3e
       0.078076996 0.21476963 0.13789544 0.23934634
000050 02 65 fd 3d ea 47 90 be 24 70 50 3e f1 aa 80 3e
       0.12372781 -0.28179866 0.20355278 0.25130418
000060 dd cf 5e be 15 38 ad bd 91 bf 80 bd 11 b2 f5 3d
       -0.21758981 -0.084579624 -0.062865384 0.11996854
000070 d5 37 a1 3e 77 3a 40 3e e0 7d c4 bc 36 d6 d2 3b
       0.3148791 0.18772303 -0.023985803 0.0064342273
000080 f4 0d 26 be b3 81 c1 bc 0c 61 8b bb 8e 9e 3a 3b
       -0.1621626 -0.023621416 -0.0042535122 0.0028475854
000090 d2 5d 5b 3e 27 00 22 3e f8 2c 86 bc 0e 62 56 3d
       0.21422508 0.1582037 -0.016378865 0.052339606
0000a0 d4 82 4b 3c 94 d3 87 3d e9 b7 1e 3e 8b 84 b0 bd
       0.012421329 0.06632152 0.15499844 -0.086190306
0000b0 9e 96 1d bc cb 0d 47 3e 15 10 d0 3d 97 ac 19 be
       -0.0096184295 0.19438855 0.101593174 -0.15007244
0000c0 ad 1d 1a 3e 03 70 03 be e5 b3 39 3c 62 7c 1b bc
       0.15050383 -0.12835698 0.011334394 -0.009490104
0000d0 32 fd 0c bf c6 a9 2d 3e 20 64 e4 bc 57 b2 65 bc
       -0.55073845 0.16959295 -0.027879775 -0.01401957
0000e0 90 69 5b 3e a0 7c c6 3d 7d 8e 85 bd 3c 12 5b be
       0.21426988 0.09691739 -0.06521318 -0.21393675
0000f0 33 de c7 be c4 46 4a 3d 1a 7f cd bd 3c 0f 89 be
       -0.39036712 0.049383894 -0.10034008 -0.26769435
000100 a1 65 4e 3d f0 55 82 bd 1a 0d 80 bd 34 a3 36 be
       0.05038989 -0.063640475 -0.06252499 -0.17835695
000110 1f ab f6 be d8 56 86 3e 33 c0 cb bd 31 90 4a be
       -0.4817743 0.26238132 -0.099487685 -0.19781567
000120 15 7d 1c 3d 98 23 37 3f 58 3c 02 bd e0 19 0d 3c
       0.038205225 0.71538687 -0.03179583 0.008612126
000130 9f 6f a4 bd 6b 26 27 be 7e 84 dd 3c 64 53 a8 3b
       -0.080291025 -0.16323249 0.027040716 0.005136894
000140 e8 fa 93 bd 9d 09 41 3f 10 8b 02 bd 62 1e 0e 3b
       -0.07225591 0.75405294 -0.0318709 0.002168559
000150 ad 11 3e 3d a7 b3 fe be 42 01 a2 3c 29 0d 7c 3d
       0.046403576 -0.4974644 0.01977599 0.061535988
000160 1b 9e 8e be ac 16 24 3f 69 9e 69 3b fa c4 18 3e
       -0.27855 0.64097095 0.0035647398 0.1491889
000170 10 87 96 3e 5f 48 c5 bf 30 c4 e7 bc ce cb 09 3e
       0.2939992 -1.5412711 -0.028291792 0.13456652
000180 86 9b b8 3e bd fb a4 3e 41 10 2f 3c 7c d0 89 3d
       0.36056155 0.3222331 0.010685028 0.06729218
000190 27 14 75 3e 7f 01 2e be bd 25 ae 3b 18 b0 88 3d
       0.23933469 -0.16992758 0.0053145573 0.06674212
0001a0 1c 05 d9 3e c9 9c ab 3e ef de 56 bd 1a 1c 2e 3e
       0.4238671 0.33518055 -0.0524587 0.17002907
0001b0 5d f5 ab 3e 0c 1e 10 be a9 73 5d bc 28 77 08 3e
       0.33585635 -0.14073962 -0.013516345 0.13326705
0001c0 22 60 bc 3e f4 fd 04 3f e1 55 e4 bb 80 ee 1b 3e
       0.36792094 0.5195 -0.0069682454 0.152277
0001d0 c3 a2 9a 3e b9 70 32 be bc a1 bf bd ff 70 f3 3d
       0.30202302 -0.17425813 -0.0935702 0.11886787
0001e0 b1 99 c0 bd 62 91 c5 bd 64 f1 2b bd 5c a2 07 3d
       -0.09404314 -0.0964687 -0.041978255 0.033113822
0001f0 c7 d5 65 bf ed 9b 70 3d 95 a0 33 3d 18 22 1b 3d
       -0.89779323 0.058742452 0.043854315 0.03787431
000200 4c af f0 3c b8 00 d6 3d 78 7f 67 3c 15 1a bd bd
       0.029380463 0.10449356 0.014129512 -0.092334904
000210 7e f7 0b c0 9b 85 08 3d 6d 36 18 3c c7 3e 49 bc
       -2.1869807 0.03333054 0.00929032 -0.012283034
000220 3a 12 4d bc 30 40 26 3e a3 6b ed bc a8 16 d5 bc
       -0.012516553 0.16235423 -0.02898199 -0.02601178
000230 69 c8 1d bf af 98 ba 3d 1f 72 c9 3c ac 9c 33 bd
       -0.61633927 0.09111153 0.02459055 -0.043850586
000240 db c3 ff bd 85 d3 8b 3e 28 3c 42 3d 7f 06 ad 3e
       -0.12488528 0.27309814 0.04742065 0.3379402
000250 0e df a4 3d d6 ad 22 3e a0 07 03 3e 85 11 97 3e
       0.08050357 0.15886626 0.12795877 0.29505554
000260 38 f8 d8 bc ea e8 d8 3e ec c2 4c 3d a9 ca 9f bd
       -0.026485547 0.423652 0.04999058 -0.07802326
000270 ca 2f b8 3c 4e a0 f4 3d 69 84 ee 3d 91 50 f8 3b
       0.022483725 0.11944638 0.11646349 0.0075779636
000280 41 d6 51 bd 43 bd 8d 3e fc a4 e4 3c 42 77 e2 be
       -0.05122972 0.27683458 0.027910702 -0.44231611
000290 86 59 2c bd 01 a0 9b 3e 3e 85 b0 3d ad 76 f0 be
       -0.042077564 0.3039551 0.08619164 -0.46965542
0002a0 60 67 90 3d c0 c6 80 3c bb 9f 34 bd e6 d4 04 3e
       0.07050967 0.015719771 -0.044097643 0.1297184
0002b0 46 14 05 3f b5 36 dd bc 6a 60 15 3d 5d 8c c6 3d
       0.5198406 -0.027003625 0.0364689 0.09694741
0002c0 95 ef 8b bd 28 52 70 bd d9 7d 8b bc f6 52 50 bd
       -0.06832806 -0.0586721 -0.017027782 -0.050860368
0002d0 9b b4 85 3f ca 14 89 3c 36 3e a9 3c 23 87 17 be
       1.0445741 0.016733546 0.020659547 -0.14797644
0002e0 eb 63 e3 bb 0a b7 34 3a f3 6a f0 bb a5 94 b7 bc
       -0.0069394014 0.000689373 -0.007336968 -0.022409746
0002f0 7b 59 0e 40 24 09 b5 3c c8 e4 2b 3c 16 25 e6 bb
       2.2242115 0.022099085 0.010491557 -0.007023464
000300 c8 f7 db be 1b d5 6d bc 96 7a bc 3d bf 58 e5 bb
       -0.4296248 -0.01451614 0.09203069 -0.0069991047
000310 34 e8 09 3f da b5 0b 3f 57 85 7d 3d 8a 56 1e bd
       0.5386994 0.5457436 0.06189474 -0.03865675
000320 ed fd 21 be 60 83 41 3d bd 9a 57 3d 99 15 02 3c
       -0.15819521 0.04724443 0.052637804 0.00793972
000330 6d 36 ba 3e 4e d2 b2 3d 7c fe 72 3d f2 3b fb 3c
       0.3636965 0.08731519 0.059324726 0.030668233
000340 b4 71 cb bd a1 f5 91 3d 09 ed 27 3d 61 4a c3 3d
       -0.099337965 0.07126928 0.04099754 0.09535671
000350 e4 8a 83 bd 15 69 fe bc 1b b1 26 bd 7b d2 9d 3d
       -0.06422976 -0.031055966 -0.040696245 0.077061616
000360 99 05 ae 3d 7c d3 01 3e 11 c8 ae 3c a2 47 4d bd
       0.084971614 0.12678331 0.021335633 -0.050117142
000370 e5 3f ed 3e 9f a3 00 3e 3b 9b 21 3d 02 eb 55 bd
       0.4633781 0.12562416 0.03945468 -0.052226074
000380 3e 44 37 3e 8c ef 1a 3d 6d 0d 26 bd 99 2b 63 be
       0.17897126 0.037826106 -0.040540148 -0.221846
000390 46 9d 8e 3e 2b c1 24 be 9d 6d 35 3c e3 b3 59 be
       0.27854365 -0.16089313 0.011073497 -0.21260028
0003a0 ca 09 81 3e 40 61 fb bb 86 cc a6 bc d5 32 10 bf
       0.2520278 -0.007671505 -0.020361196 -0.56327564
0003b0 eb 0c 9a 3d f9 4d 06 be 46 f2 33 bd 1e 79 fa be
       0.07521995 -0.13115682 -0.04393222 -0.4892053
0003c0 2a ed 20 3f 1e 43 15 be ee 63 b3 bc 9c be b3 bd
       0.62861884 -0.14576384 -0.021898236 -0.0877659
0003d0 d4 12 07 3e 5a f4 de be 16 73 07 3c ed f6 1a bd
       0.13190776 -0.435458 0.008267185 -0.037833143
0003e0 33 eb 5d 3e b7 d2 d8 be 82 75 cd bd 73 58 54 3e
       0.21671753 -0.42348263 -0.100321785 0.20736866
0003f0 3c be 03 be d3 7d 7e 3b a2 f6 e3 bc 72 1d 31 3e
       -0.12865537 0.0038832321 -0.027827565 0.17296389

fcs1.bias f4 [256]
000000 0e 94 b6 be 3a dc 21 bc df 26 1e be 64 c6 42 3e
       -0.35659832 -0.009879166 -0.15444516 0.19020993
000010 50 7d d4 be a7 9d cc bc 85 13 2a 3d 6d f8 60 3e
       -0.41501856 -0.024977518 0.04152252 0.21969767
000020 9d 72 d5 be e9 d2 0d 3e 8d 27 97 bd a2 cf d1 3e
       -0.41689005 0.13849987 -0.073805906 0.40978724
000030 06 01 60 3d bd 53 41 bc 1d f4 0a be 5c 66 af bb
       0.054688476 -0.01179975 -0.13569684 -0.0053527784
000040 83 78 aa 3d bd 88 2c 3e 75 0a fa be fc 1f f7 3d
       0.08323767 0.16849037 -0.48836103 0.120666474
000050 40 10 36 3e 44 4a 45 3d 4a 95 14 bf 27 0f 78 be
       0.17779636 0.04816653 -0.580403 -0.2422453
000060 cf 0b a7 3d e4 cc 88 bd 90 70 87 be e9 2e b2 3d
       0.08156549 -0.06679705 -0.26453066 0.08700354
000070 8b 81 69 3d 80 7b b9 be c4 0a 22 be 9c 42 d6 3d
       0.057008307 -0.36227036 -0.1582442 0.104619235
000080 26 48 7d be 78 d5 08 bd 0c 2c 3e 3c ef 92 96 bd
       -0.24734554 -0.033406705 0.011607181 -0.07352244
000090 84 dc 0f bf ef dd c6 bd 8b a5 5f be eb b9 cd bc
       -0.56195855 -0.09710299 -0.21840493 -0.025113067
0000a0 f0 c7 c6 be dd f9 1d 3e 07 50 d6 bc 4c 39 9f be
       -0.38824415 0.15427347 -0.026161207 -0.31098402
0000b0 7e 82 78 be a9 51 e0 be c7 e8 b6 be 5b fe ee 3e
       -0.24268529 -0.43812302 -0.3572447 0.46678433
0000c0 44 61 2d be d9 8a 36 be 1d de 67 be c1 d4 30 3e
       -0.16931635 -0.17826404 -0.22643323 0.17268659
0000d0 60 84 15 be 89 d4 66 be 39 a7 7c 3d 99 e4 04 3e
       -0.14601278 -0.22542013 0.061682913 0.12977828
0000e0 13 78 00 3e c2 c0 e8 bd b4 10 d6 bd 4c fd 9c be
       0.12545805 -0.11364891 -0.104524046 -0.30662
0000f0 4f 8d ab be ea 69 2d 3e 19 62 26 be 36 32 1e 3d
       -0.33506247 0.16934934 -0.16248359 0.038622104
000100 d6 13 c4 be 79 7e 35 be f5 70 56 bf 1c 7f b3 be
       -0.38296384 -0.17724027 -0.8376611 -0.35057914
000110 d9 e6 e7 bd 25 1e ab be 58 43 34 3e f7 10 05 bf
       -0.113233276 -0.33421436 0.17603815 -0.5197901
000120 7d ee 88 3d 4e 3a cb bd 12 cf 00 bf 0a e6 35 bf
       0.06686113 -0.0992323 -0.50315964 -0.71054137
000130 f1 6e 79 be 5d 59 a9 be 5c 46 ad 3d f9 10 c0 bc
       -0.24358727 -0.3307599 0.084606856 -0.023445593
000140 70 bb 59 be 59 b1 f4 be b4 28 3c be 41 db 00 3e
       -0.21262908 -0.47791556 -0.18374902 0.12583639
000150 63 b3 d8 be 5e a3 8d bc e2 98 4a bd b8 c1 22 3e
       -0.4232436 -0.017289814 -0.049462207 0.1589421
000160 78 f4 89 be 2e a2 4a be 73 24 b0 3c 90 d9 7f bc
       -0.26944327 -0.19788429 0.021501755 -0.015615836
000170 aa 7f 22 3e 3c 82 af be a5 ec fc 3d 5d 06 00 bf
       0.15869012 -0.34279048 0.12349824 -0.5000971
000180 33 73 57 bf e0 b0 a1 be a6 02 9f bd 8d 88 b2 be
       -0.84160155 -0.31580257 -0.07764177 -0.34869805
000190 a8 f2 df be b7 13 54 3e 00 f4 b3 be 79 c4 7a 3d
       -0.4373982 0.20710646 -0.35147095 0.061222527
0001a0 d5 20 28 be a6 72 68 be 20 09 a2 be aa eb 18 bd
       -0.16418774 -0.22699985 -0.31647587 -0.03733412
0001b0 b4 cc 0b be 98 e4 91 be c2 b4 8c bd 60 a8 92 be
       -0.13652307 -0.28494716 -0.06870414 -0.28644085
0001c0 66 9a 62 3d 51 4f a6 be 9e 48 63 3e 7b fc c3 bd
       0.055323027 -0.3248239 0.2219567 -0.09569641
0001d0 f0 ef 41 3d 42 0c da be 3b 43 10 bd dd 4a e8 be
       0.047347963 -0.42587477 -0.035220366 -0.45369616
0001e0 fc db 09 be 79 a0 d6 bd 28 63 82 be 22 37 a9 bd
       -0.13462824 -0.104798265 -0.25466275 -0.08262469
0001f0 d2 2e 88 3e e6 71 b4 be e0 c7 86 be 0e f5 25 bd
       0.2659822 -0.35243148 -0.26324368 -0.040516905
000200 bf 26 55 be 36 df 30 3d 83 5e 98 be a7 ff 03 3e
       -0.20815562 0.04318162 -0.29759607 0.12890492
000210 1d f0 a3 be 22 59 51 3d e8 14 f9 3e b7 70 33 bf
       -0.3201913 0.051110394 0.48648763 -0.70093864
000220 70 b5 0d bf c5 fd 3c be d6 6b e4 3e a6 3a 2d 3e
       -0.55354977 -0.1845618 0.44613522 0.16916904
000230 37 bc c4 3d a8 12 c1 be ea ec ed 3d 66 52 f3 bd
       0.09606212 -0.37709546 0.116174534 -0.11880951
000240 79 41 f7 3d 17 d5 75 be dc 44 29 be 3d 83 aa be
       0.12073035 -0.24007069 -0.16530174 -0.33303252
000250 a7 7d 01 bf 80 6d 53 be ce 85 d4 be f0 c4 3f 3e
       -0.50582355 -0.2064724 -0.41508335 0.1872747
000260 71 c9 d3 bd 75 67 e1 3d 42 ee d6 be 82 d5 aa bd
       -0.10341156 0.11006061 -0.4197865 -0.08341505
000270 ce ba 92 be 1f 3c 09 be eb 1c 3d bd b5 e4 c0 be
       -0.28658146 -0.1340184 -0.046170156 -0.3767449
000280 56 91 4d bf 8d 29 4f be e8 4b 14 be 94 8d 41 3e
       -0.8029989 -0.20230694 -0.14482081 0.18901664
000290 9d 6a 53 3e 12 c1 0b 3e a4 97 65 be 54 dd 25 be
       0.20646138 0.13647869 -0.22421128 -0.16197711
0002a0 da 92 94 3b 70 92 f5 3e a4 fa 20 bf ef 84 0b be
       0.0045341076 0.47963285 -0.6288245 -0.13624929
0002b0 7b 63 80 be 46 68 2b 3e 98 03 ce bd 67 87 52 3e
       -0.25075898 0.16738996 -0.10059279 0.20559464
0002c0 27 98 10 bd cf 7c a1 be ea 90 65 3d bc a3 2e be
       -0.035301354 -0.31540534 0.056046404 -0.17054647
0002d0 67 1a 0c bf ac b3 49 be 3e 12 e1 be f3 8d 8a be
       -0.54727787 -0.19697446 -0.4395923 -0.27061424
0002e0 53 24 28 be 24 ed 09 be e7 7a 2d 3d 83 e1 19 3e
       -0.16420107 -0.13469368 0.042353537 0.15027432
0002f0 bc 31 92 be 86 ca 9a 3d 12 49 4c 3d 28 e0 1e be
       -0.2855357 0.075581595 0.049874373 -0.15515196
000300 69 74 6a 3e f8 44 a7 bd 53 96 75 3e c7 b5 02 3e
       0.2289597 -0.081674516 0.23983125 0.12764655
000310 7f 92 eb bd 61 91 9f bd 61 39 e8 3d d2 69 83 bc
       -0.11502551 -0.07791401 0.11339069 -0.01604167
000320 dc 28 c8 3e 2f c7 65 be db 17 59 be 2a 61 8a be
       0.39093673 -0.22439264 -0.21200506 -0.27027255
000330 12 cd c1 be db 4b 40 be 2d 94 f2 bd 7e 5f c9 be
       -0.3785177 -0.18778937 -0.118446685 -0.39330667
000340 0f 6a eb be 65 89 a0 be a0 46 48 be fb 29 b4 bd
       -0.45979354 -0.31354824 -0.19558191 -0.0879707
000350 d0 4e af be 31 31 b7 be 79 b0 b4 be cc 85 31 be
       -0.34239817 -0.35779718 -0.35290888 -0.17336196
000360 25 d4 88 be e0 ea 8f be 38 d9 bf be 12 6d 8f be
       -0.26724353 -0.28108883 -0.37470412 -0.28012902
000370 f2 2e 0e 3d fb 9b 03 3e 92 7b 6d 3e f0 9f cf bd
       0.03471274 0.1285247 0.2319167 -0.101379275
000380 26 5a 8b 3e 3b 71 16 be ff 79 90 be 7b 1d 57 be
       0.27217215 -0.14691631 -0.28218076 -0.2100734
000390 a1 4b 0a be d2 45 10 be 05 d4 03 3e b5 57 84 be
       -0.13505413 -0.14089134 0.12873848 -0.25848165
0003a0 80 2b bd be a9 cb ca bd a4 3d 83 be 28 d1 03 3e
       -0.3694725 -0.09902126 -0.25632966 0.12872756
0003b0 78 d3 c5 3d 8e ad 79 bc 58 69 71 3e 4e 76 4a be
       0.09659475 -0.015239133 0.23575342 -0.19771692
0003c0 44 96 6b bf 4d c3 33 be ee c6 82 3d db 88 4d 3d
       -0.9202616 -0.1755497 0.06385599 0.050179344
0003d0 d7 d3 a8 3d d1 18 d5 bd 53 14 d7 be 77 b9 d7 bd
       0.0824353 -0.10405124 -0.42007694 -0.105334215
0003e0 54 bf 88 bd f7 a6 56 be d8 43 9a be 07 e9 df bc
       -0.06677118 -0.2096213 -0.30129886 -0.027332796
0003f0 97 de cb be 3c 43 86 be d9 63 30 be 14 20 e2 3d
       -0.3981826 -0.2622317 -0.17225589 0.11041275

bn1.weight f4 [256]
000000 9e 73 8f 3e 26 14 50 3b 79 65 82 3e 17 b0 d1 3f
       0.28017896 0.003175029 0.25468042 1.6381863
000010 0c aa 81 3e b6 f1 71 3f 1e 52 4b 3e 2b b0 9b 3f
       0.25325048 0.94509447 0.19855544 1.2163137
000020 c9 0c 96 3e 40 76 d4 3e 66 1e a8 3e c7 9c d3 3e
       0.2930663 0.41496468 0.32835692 0.4133055
000030 76 f3 0f 3f 43 25 42 3e c4 cc 06 3e a8 f0 7d 3e
       0.56230867 0.18959527 0.1316405 0.24798834
000040 5c ab 65 3e 66 af 37 3e 6d a0 81 3e 2f 37 6b 3e
       0.2242865 0.17938003 0.25317708 0.2297027
000050 1e 2e 86 3e e4 a6 16 3f 04 23 93 3e 9c a2 86 3e
       0.2620706 0.58848405 0.28737652 0.26295936
000060 38 85 67 3f f2 a7 80 3f 59 ec 0d 3d 85 68 b7 3c
       0.9043765 1.0051253 0.034649227 0.022388706
000070 df 1d 8a 3e ed ee fd 3e ec 13 47 3d 7a b2 8d 3d
       0.26975915 0.49596348 0.048602983 0.06918807
000080 33 d3 90 3a 0f b0 c7 3e f0 80 aa 3e 03 71 f1 3e
       0.001104927 0.3900151 0.33301497 0.47156534
000090 ac 15 ae 3f 5d 22 f9 3e 09 14 0f 3e 01 e5 a1 3e
       1.3600364 0.4865903 0.13972487 0.3162003
0000a0 02 c3 de 3e da 37 31 3f d7 e6 62 3c 89 9b 78 3e
       0.43508154 0.6922585 0.013848982 0.24278082
0000b0 a7 02 4d 3e af 57 d3 3e 60 c6 b1 3e e8 c1 85 3f
       0.20020543 0.41277835 0.3472166 1.04498
0000c0 58 b6 a6 3d 84 d1 a8 3d 87 03 06 3f a9 90 99 3e
       0.08140248 0.08243087 0.5234913 0.2999318
0000d0 7c 56 0d 3f b0 39 ec 3e e8 5d 86 3e 82 54 55 3e
       0.5521009 0.46137762 0.2624352 0.20833018
0000e0 eb 26 70 3e 67 63 a9 3e 54 5b 8c 3d 95 3a e7 3e
       0.23452346 0.3308365 0.06853357 0.45161882
0000f0 80 68 0c 3f 20 62 f0 3e 8d af be 3e 56 11 03 3c
       0.54846954 0.46949863 0.3724331 0.007999739
000100 af 5b e3 3e c8 6b e2 3c 5d 34 bb 3f 13 2b e1 3e
       0.44405887 0.027639285 1.4625355 0.43978176
000110 76 ff c6 3e 54 17 e0 3e 08 4a e2 3f af 55 12 3f
       0.38866776 0.43767798 1.7678843 0.5716199
000120 45 e3 f4 3e ef ea 02 3f 76 0a d8 3e 5c 65 46 3f
       0.47829643 0.5113973 0.4219548 0.7749841
000130 6d fa e5 3e 61 03 c2 3f 85 14 7e 3e d1 52 cf 3e
       0.44917622 1.5157281 0.24812515 0.4049287
000140 ea fd b0 3f 9f d1 18 3f 6d e7 33 3e ae 30 88 3e
       1.3827488 0.59694856 0.1756875 0.2659964
000150 8c bf 00 3e 42 ab eb 3e c6 bd 5b 3e ac 1b 99 3e
       0.1257307 0.46029097 0.21459112 0.29903924
000160 31 d3 8a 3e 75 65 b6 3f 98 60 62 3f 89 ec 36 3f
       0.2711425 1.4249712 0.8842864 0.71454674
000170 57 d4 d6 3e df 5c af 3f d1 ad 25 3e c7 50 8e 3f
       0.41958877 1.3700217 0.16179587 1.1118401
000180 15 1d 58 3f d8 f5 cd 3f f1 a6 b8 3e c4 0f 46 3f
       0.84419376 1.609065 0.36064866 0.77367806
000190 34 1e 85 3d 9b 5d d3 3e c5 5a b9 3e 5b 13 47 3e
       0.064999014 0.41282353 0.36202064 0.19440977
0001a0 24 03 1e 3c 73 3f 36 3f 5d 59 98 3e 6c 8c 0f 3e
       0.0096443035 0.71190566 0.2975568 0.1401841
0001b0 c3 e4 91 3e 0a 68 66 3e 6e e5 2e 3e 5d 48 32 3e
       0.28494844 0.22500625 0.17079708 0.17410417
0001c0 f1 97 ac 3e 8c b9 9e 3e 37 44 0e 3f ee 8a 99 3f
       0.33709672 0.31000936 0.5557284 1.1995523
0001d0 07 b5 f5 3e 5d 31 9a 3e 30 c7 b8 3e 11 3f 2a 3e
       0.47989675 0.30115786 0.36089468 0.1662562
0001e0 35 ec c4 3e ff c8 c6 3e 1f 5f 9e 3e 61 7d 8f 3d
       0.38461462 0.38825223 0.30931947 0.07006336
0001f0 a9 f8 d5 3f e9 87 b5 3f f7 9b 51 3e 1f bb 27 3f
       1.671651 1.4182101 0.20469652 0.655199
000200 86 62 d5 3e 32 d4 c6 3e 3c 66 9a 3f 2f 76 9b 3e
       0.4167673 0.38833767 1.206245 0.30363604
000210 79 22 cf 3d e4 f4 19 3e 45 e9 b1 3f 58 b5 76 3e
       0.10113997 0.15034825 1.3899313 0.24092615
000220 a2 83 88 3d 6a 19 51 3d d5 8e 23 3f f5 dc 9e 3e
       0.06665732 0.051049627 0.6388982 0.31027952
000230 a8 f0 4b 3f d6 9d a0 bb fd 57 35 3d 3e 8a ca 3d
       0.7966409 -0.004901628 0.044273365 0.09889649
000240 8e 14 de 3e c1 26 b8 3e 98 85 61 3f b4 b1 6d 3f
       0.43375057 0.35967067 0.8809447 0.9284928
000250 7f 09 a0 3e c6 0f 78 3f 73 44 2d 3f 04 67 f1 3e
       0.31257245 0.9689907 0.6768257 0.47148907
000260 67 79 f6 3c 2c ba 39 3e 2f 66 ec 3c b9 30 a2 3e
       0.030087186 0.18137425 0.028857319 0.31677797
000270 8c 05 48 3d 1d 6a 09 3f 92 77 23 3f 73 f2 b6 3f
       0.048833415 0.5367754 0.63854325 1.429274
000280 5b ed 2a 3f b4 78 9e 3e fd 82 af 3e 40 d0 68 3e
       0.66768426 0.30951464 0.34279624 0.22735691
000290 83 94 c8 3f 82 35 e2 3d 8d 7a 16 3e 18 fd 35 3e
       1.5670322 0.11045362 0.14695187 0.17772329
0002a0 5a 41 a4 3b 6d ab 28 3f 8c cc a3 3f d8 c8 ee 3e
       0.0050126733 0.65886575 1.2796798 0.46637607
0002b0 cb 9d 47 3e e8 d2 b7 3f 1f ec 07 3f ad cb b4 3d
       0.19493787 1.4361238 0.5309467 0.088279106
0002c0 d0 9f 02 3e 72 88 96 3e 0e 62 48 3d 69 fe 55 3e
       0.12756276 0.29400975 0.048921637 0.20897831
0002d0 53 33 c3 3f 83 c5 82 3e e3 67 ca 3f 5e b1 b8 3e
       1.5250038 0.25541314 1.5812954 0.3607282
0002e0 23 8d 1b 3d 9c f9 d1 3d 1c a1 dd 3e 78 0e a2 3f
       0.037976395 0.10252687 0.4328698 1.2660666
0002f0 ba 6a 88 3e ef ce 4e 3e c1 f2 97 3f 94 56 02 3f
       0.26643926 0.20196126 1.1870958 0.5091336
000300 6c ce d4 3e f1 ef 02 3f fb 63 f1 3e 55 79 f5 3e
       0.41563737 0.5114737 0.47146592 0.47944131
000310 9f a3 ea 3e 89 de 39 3f 6d e8 2d 3d bf 07 a9 3d
       0.45827958 0.72605187 0.042457987 0.082534306
000320 df 6b 84 3f 94 e4 14 3f a6 51 6d 3e 3b 86 a9 3e
       1.034542 0.5816128 0.23175678 0.33110222
000330 0f 75 a2 3d 1e f2 b5 3e 3d 2c ae 3f d7 dc d5 3f
       0.079324834 0.35536283 1.360725 1.670802
000340 20 c8 61 3f a6 34 5c 3e 28 d6 67 3f b1 77 01 3f
       0.8819599 0.21504459 0.9056115 0.5057326
000350 03 67 b5 3f 57 5c 0d 3f d3 f5 9b 3f 33 69 10 3e
       1.4172062 0.55219024 1.2184395 0.1410263
000360 b9 98 a7 3f 79 2e 80 3e 1e 8c 9b 3f c2 e9 c7 3e
       1.3093482 0.25035456 1.2152135 0.3904553
000370 0b 06 0f 3f 41 3a 7d 3e 52 6f b6 3e 03 0f 6e 3e
       0.55868596 0.24729253 0.35631806 0.23247914
000380 8d 66 cf 3e b5 a7 9c 3d 44 be f1 3e 68 14 80 3e
       0.40507928 0.07649175 0.47215474 0.2501557
000390 03 30 49 bb f7 b2 88 3e 28 45 68 3c 08 69 cc 3f
       -0.0030698783 0.2669904 0.014176644 1.5969553
0003a0 65 fe 1c 3e a1 c5 90 3e 9a 32 ef 3e f9 6f d6 3c
       0.15331419 0.2827578 0.46718293 0.02617644
0003b0 87 76 28 3c 64 72 84 3e cb 3f ce 3e 26 f7 0b 3f
       0.010282165 0.25868523 0.40283045 0.54673994
0003c0 a9 38 88 3f 56 84 b8 3e 0c 60 33 3f 87 8b 93 3f
       1.0642291 0.36038464 0.7006843 1.1526955
0003d0 7e b3 e2 3e e0 b4 9d 3f 1c 53 86 3f 43 97 32 3e
       0.44277567 1.2320824 1.0494113 0.17440514
0003e0 e1 06 1d 3f 22 41 34 3f 1a ba a8 3f 66 3b 2d 3e
       0.6133862 0.70411885 1.3181794 0.1691719
0003f0 d5 46 09 3f 28 7f fb 3e 52 b0 43 3e a6 d9 79 3f
       0.53623706 0.4912045 0.1911023 0.9759773

bn1.bias f4 [256]
000000 22 9f 28 35 f7 3e 3a 36 a0 a5 4b b7 30 28 cc 36
       6.2816446e-07 2.775281e-06 -1.21383055e-05 6.084352e-06
000010 d0 1f f2 b6 2b 4b 30 37 bb cf d5 b5 00 4a 63 b7
       -7.2158655e-06 1.0507919e-05 -1.5930194e-06 -1.3547484e-05
000020 79 dd 2a b5 0c 99 c0 36 c0 ce 24 36 e3 15 e0 b5
       -6.365222e-07 5.739863e-06 2.4558249e-06 -1.669567e-06
000030 ce 94 82 b6 83 f7 15 b6 74 a4 ba 36 34 8d df 35
       -3.891625e-06 -2.23468e-06 5.562377e-06 1.665589e-06
000040 a8 85 2a b6 d3 ec c4 b4 c2 fc 9d b6 92 79 c2 36
       -2.5409772e-06 -3.6680157e-07 -4.7083895e-06 5.795803e-06
000050 18 22 49 36 94 3b 4e 35 9c ee db 35 ec 00 71 b5
       2.997118e-06 7.682768e-07 1.6386216e-06 -8.978084e-07
000060 44 50 86 b5 ab 6a a2 b6 2e 99 72 b5 e2 85 b5 b6
       -1.0007138e-06 -4.840394e-06 -9.037493e-07 -5.4098064e-06
000070 1c b7 48 36 19 49 bb b6 36 49 35 b6 74 e9 1e 36
       2.9908906e-06 -5.581544e-06 -2.7013716e-06 2.3679722e-06
000080 22 02 e7 35 bf d3 3d b5 3b fa 89 36 62 91 82 b6
       1.7211462e-06 -7.071612e-07 4.112049e-06 -3.8912267e-06
000090 9f 65 88 36 f7 19 00 36 3f f9 e0 36 51 6a 15 36
       4.064946e-06 1.90886e-06 6.7047363e-06 2.2264614e-06
0000a0 f8 13 26 b7 dd 35 ee b6 a9 b9 a6 b5 ad 14 fc 36
       -9.89902e-06 -7.0992232e-06 -1.2421998e-06 7.512592e-06
0000b0 a1 9f 89 b4 8c 3b 80 b5 b3 49 bc b4 14 66 ae b6
       -2.5634384e-07 -9.554074e-07 -3.5071352e-07 -5.1974876e-06
0000c0 cb 4c a1 b4 33 d2 7c 32 fc 6d 8c b6 13 d1 da 36
       -3.004446e-07 1.4716124e-08 -4.185129e-06 6.5212457e-06
0000d0 c8 de 33 36 86 44 31 b6 af 11 32 b6 8f 7b b2 b6
       2.6802754e-06 -2.6414941e-06 -2.653436e-06 -5.3191975e-06
0000e0 e8 2a e1 35 87 99 82 36 6e 53 2c 36 66 b3 d7 b5
       1.6776294e-06 3.892175e-06 2.567856e-06 -1.607096e-06
0000f0 ac e0 d7 b6 e8 47 78 34 c1 42 d6 36 b7 5e 45 b6
       -6.4336546e-06 2.3122959e-07 6.385468e-06 -2.9410419e-06
000100 e5 e7 17 b6 d0 ff 9f 33 65 ae 05 b7 2b 11 8f 36
       -2.2635734e-06 7.4505465e-08 -7.968022e-06 4.2637307e-06
000110 6a 71 b9 36 a2 f9 e1 b5 f2 29 29 36 85 e1 41 36
       5.526633e-06 -1.6836459e-06 2.5207378e-06 2.889051e-06
000120 7c 8b d3 33 a3 50 e9 b3 b7 4c d2 36 77 98 f0 b4
       9.850825e-08 -1.0864576e-07 6.2674185e-06 -4.4814416e-07
000130 72 44 ed b5 4d 2f 93 b7 2e 3b 13 b5 96 4d db b6
       -1.7677796e-06 -1.7545792e-05 -5.4847885e-07 -6.535741e-06
000140 ce 44 aa 37 45 db 72 35 28 57 e3 b5 64 76 1b b4
       2.0297619e-05 9.0471104e-07 -1.6938184e-06 -1.447857e-07
000150 a1 87 8d b6 6d 1e 64 36 9b b9 8b 35 09 3c cc 35
       -4.2179167e-06 3.3992358e-06 1.0410325e-06 1.5216657e-06
000160 02 26 4f 36 0f 27 d3 b6 1d 47 00 b7 da 93 e4 b6
       3.0867527e-06 -6.292837e-06 -7.645952e-06 -6.8121417e-06
000170 92 4f 29 b7 9b e1 7e 38 b9 67 e7 34 31 39 fa b6
       -1.0091711e-05 6.076843e-05 4.310257e-07 -7.4572386e-06
000180 53 39 17 b6 b2 5c bf b7 ce af 3d b6 fb 0a cd b6
       -2.253412e-06 -2.2812139e-05 -2.8265526e-06 -6.1107544e-06
000190 fb eb 81 b6 27 22 94 b6 4d f4 35 b6 be 88 fe b5
       -3.8719713e-06 -4.4147196e-06 -2.7113304e-06 -1.8964272e-06
0001a0 27 2a dc 35 ae f2 62 37 84 a4 2a b7 38 ca 9a b6
       1.6403545e-06 1.3527153e-05 -1.0171094e-05 -4.613099e-06
0001b0 c7 4e ec b6 d5 23 8d 36 63 c6 0c b6 01 e8 98 34
       -7.042519e-06 4.206299e-06 -2.0977102e-06 2.848101e-07
0001c0 a1 dd 03 b6 bb 55 09 37 cc d6 33 36 c6 b8 cd 36
       -1.9649526e-06 8.185797e-06 2.6798107e-06 6.1309865e-06
0001d0 17 ce e5 36 df 0b b7 35 9a 92 a3 b6 27 2f bb b5
       6.848724e-06 1.3638017e-06 -4.874845e-06 -1.3946309e-06
0001e0 9d 76 01 b7 6e a1 65 36 00 cc 30 35 83 e7 70 36
       -7.716616e-06 3.4217624e-06 6.586197e-07 3.5897544e-06
0001f0 2b 6a 3f b7 25 c3 14 b6 0e 48 f9 b5 33 9b 07 b7
       -1.1409206e-05 -2.2167308e-06 -1.8572916e-06 -8.082762e-06
000200 9c ae 0c b6 0d 57 91 b5 39 32 64 36 67 2f 1d b6
       -2.0963262e-06 -1.0828677e-06 3.400388e-06 -2.3422415e-06
000210 fd 74 36 b6 9c 0d ec b5 70 09 c0 36 15 b1 3a 36
       -2.718821e-06 -1.7587331e-06 5.7231446e-06 2.7819235e-06
000220 9c d4 b0 b4 9b 30 15 b6 36 f0 1f b7 3a a2 dd b6
       -3.2937248e-07 -2.2231022e-06 -9.533067e-06 -6.605199e-06
000230 1b 74 24 b6 c7 86 04 35 79 4c 13 b6 d6 dd 7f 36
       -2.4505487e-06 4.936996e-07 -2.194922e-06 3.8127087e-06
000240 f6 45 0b b6 c6 1c 34 b4 aa a8 5e b7 5f 04 a7 36
       -2.0753337e-06 -1.6774274e-07 -1.3271501e-05 4.9774967e-06
000250 ff c3 03 b6 9f c5 f2 b5 cc 01 27 37 d7 98 c6 b6
       -1.9634606e-06 -1.808792e-06 9.954394e-06 -5.9186527e-06
000260 ab 0d fd b5 7e 1f de b5 02 32 67 35 c2 ab 2d 36
       -1.8853947e-06 -1.6549454e-06 8.6126977e-07 2.5878985e-06
000270 0d 26 bc b4 9a c8 7a 36 dc b6 c8 b6 36 02 0e b4
       -3.5045414e-07 3.7369668e-06 -5.981752e-06 -1.3225585e-07
000280 e8 e7 7d 35 b4 ac 84 b5 ee 62 e2 b6 66 1a e4 b5
       9.458731e-07 -9.88503e-07 -6.746842e-06 -1.6995007e-06
000290 ef 33 a4 38 6a 1e 9f b5 5d 5c 5c 34 8e 70 bf b3
       7.829803e-05 -1.1855275e-06 2.0522698e-07 -8.914604e-08
0002a0 8f 05 9e 34 1d b5 0b b6 91 ca 1f b6 6e e4 d3 36
       2.9433838e-07 -2.0818036e-06 -2.3810755e-06 6.3148827e-06
0002b0 b0 a2 c5 35 dd b0 12 37 21 c4 31 b6 60 24 0e 36
       1.4724992e-06 8.743457e-06 -2.6489217e-06 2.1180822e-06
0002c0 b1 22 0b 35 8d 9f 18 b5 14 1a eb b6 27 8a 9a 36
       5.183202e-07 -5.685659e-07 -7.0065817e-06 4.6056407e-06
0002d0 d5 dc c1 b7 04 45 0a 35 25 ce ae 37 6f 78 43 b7
       -2.3110226e-05 5.1509437e-07 2.083841e-05 -1.1650946e-05
0002e0 b3 6f dc 35 ff 06 27 b6 a5 c7 79 b5 64 a4 5c b7
       1.6423786e-06 -2.4889011e-06 -9.305025e-07 -1.3151297e-05
0002f0 d2 9e 8b b6 9e 7b e8 b5 1f c6 17 37 d9 45 a1 36
       -4.161012e-06 -1.7321324e-06 9.04643e-06 4.8063052e-06
000300 13 4b 50 35 01 70 9d 36 14 c4 09 b6 6d f6 af b6
       7.7595286e-07 4.6920036e-06 -2.0528723e-06 -5.244094e-06
000310 67 c6 9a 36 32 f2 14 33 29 c2 58 36 99 f5 c5 b4
       4.6126547e-06 3.467921e-08 3.2299524e-06 -3.6872805e-07
000320 31 5c 35 b7 03 1d 16 b6 21 fa ab 35 df 48 ae b6
       -1.0809906e-05 -2.2368629e-06 1.281329e-06 -5.1940874e-06
000330 e9 3f 5b 35 bd 0e 56 36 fc 30 66 37 3d 4d a4 b8
       8.167686e-07 3.1897064e-06 1.3720473e-05 -7.834516e-05
000340 bd 00 80 b6 e0 34 4f 35 15 9e ae b6 08 f0 d2 b6
       -3.814783e-06 7.719045e-07 -5.2040073e-06 -6.286431e-06
000350 ab e6 aa 37 61 3d 3f b6 32 f3 62 36 54 54 91 b6
       2.0372992e-05 -2.8496945e-06 3.3818183e-06 -4.331154e-06
000360 a5 9b 9b 36 35 9e 9e 36 c4 f5 4b 38 b9 43 3b b6
       4.6374794e-06 4.7271847e-06 4.862786e-05 -2.7904591e-06
000370 72 c3 90 b6 e1 2c a5 b5 a4 e2 68 b5 b2 48 d5 b6
       -4.3142873e-06 -1.230652e-06 -8.675654e-07 -6.3563575e-06
000380 b1 28 6b 36 88 40 00 36 c9 e3 22 b4 b4 f0 33 b4
       3.5041414e-06 1.9111048e-06 -1.5170293e-07 -1.6758241e-07
000390 8d e3 cc b5 c9 cd 48 b6 8f 86 51 36 b7 25 7c b8
       -1.526541e-06 -2.9922105e-06 3.122175e-06 -6.0116607e-05
0003a0 10 af b2 b4 79 b2 13 37 c7 39 55 b6 03 3d 6e 34
       -3.3282458e-07 8.803437e-06 -3.1773104e-06 2.2187673e-07
0003b0 ea 0d ef 34 e8 66 4b b7 20 7f 17 b6 57 8c 81 b6
       4.4527343e-07 -1.2123703e-05 -2.257475e-06 -3.8608373e-06
0003c0 1c a1 93 35 5e 7a 49 b6 1e f4 85 37 5b 44 9c 32
       1.0999242e-06 -3.002256e-06 1.5968511e-05 1.8191875e-08
0003d0 24 31 16 36 00 0c ec b7 7e 6b 1f 35 cd 11 b7 b5
       2.2380345e-06 -2.813898e-05 5.938854e-07 -1.3639743e-06
0003e0 fc 61 e3 b5 9e 97 e3 36 2e 31 d0 37 a3 a4 8e 35
       -1.6941335e-06 6.7827777e-06 2.4818433e-05 1.062774e-06
0003f0 34 cc 80 35 1e 3c 98 b4 4c 81 8d b6 6b 2d b4 34
       9.596174e-07 -2.8355947e-07 -4.2171796e-06 3.356066e-07

bn1.running_mean f4 [256]
000000 bd a0 cb 3f 72 93 bd 40 24 02 31 40 7c 74 9f 3e
       1.5908428 5.9242487 2.7657557 0.31143558
000010 53 bf 3a 3e 11 b8 22 41 27 19 a9 40 18 78 1d 41
       0.18237047 10.169938 5.2843204 9.84182
000020 8d f8 f6 40 6f af 94 3f fc ea 81 3e bf 79 98 3e
       7.7178407 1.1616038 0.2537459 0.29780385
000030 ce 9e 70 3e cf d1 53 3f 8c db cf 3f d7 0d 18 40
       0.23498079 0.8274202 1.6238875 2.3758447
000040 a9 3b 3e 3f c2 a2 9b 40 c2 64 7c 3f a1 d9 24 40
       0.74309784 4.863618 0.98591244 2.575783
000050 4b ab a0 40 2f a9 ab 40 d4 84 67 3f 68 d2 e5 3f
       5.02091 5.3644023 0.90437055 1.7954836
000060 7f e4 5f 3f 04 e7 a2 3d 5c 9e 7c 40 92 1d 02 40
       0.8745803 0.07954219 3.9471655 2.0330548
000070 33 d5 ba 3e 41 63 55 3f 6e 49 22 41 31 7a ad 40
       0.36490783 0.83354574 10.142927 5.421166
000080 e7 1c 4f 40 03 a6 be 3d a1 e0 9b 3f a1 ee 9f 40
       3.236139 0.09309008 1.2177926 4.9978795
000090 a4 22 a0 3e aa 12 18 3f be 5d 28 40 e8 a8 6d 3f
       0.3127643 0.5940348 2.6307216 0.92835855
0000a0 36 24 53 3f 8b 3d ba 3e aa 79 ab 3f 67 3a 82 3f
       0.8247713 0.3637508 1.3396504 1.0174073
0000b0 84 16 75 40 72 4e 1b 3f c5 e0 1c 40 62 89 30 3f
       3.8294992 0.60666573 2.4512188 0.6895963
0000c0 41 1c 15 40 f3 c1 d0 40 1f 67 19 3e 99 eb 9d 3f
       2.3298495 6.5236754 0.14980744 1.2337524
0000d0 9b 61 6a 40 de b9 ab 3e 2b 66 1f 3f dc 6d 29 40
       3.6622074 0.33540243 0.6226527 2.6473303
0000e0 c7 40 51 40 6f 7f 3f 3f 58 33 1b 40 7e 29 05 3f
       3.2695787 0.74803823 2.4250088 0.5201644
0000f0 05 b8 69 40 4f bb 58 3f 70 1b aa 3d c2 6c a4 40
       3.6518567 0.8466081 0.083060145 5.138276
000100 56 be da 3f 72 7f e5 3f 50 3c 0f 3e 9a c6 7c 3f
       1.7089336 1.7929518 0.13987851 0.9874054
000110 fd d0 fc 3f b7 bc 88 3f 45 5a 32 41 b2 1d c6 3e
       1.9751278 1.0682591 11.147038 0.3869453
000120 75 18 a1 3e 69 2c 7e 3f f0 da 3c 3f bb e3 4c 3f
       0.31463972 0.99286515 0.7377157 0.8003499
000130 93 6b 00 3f 2c 18 8a 40 da 4d a5 40 77 ac b0 3e
       0.50164145 4.3154507 5.1657534 0.3450658
000140 8d 85 24 41 0c f7 7c 3f bf 3f 5d 3f f5 e3 85 3f
       10.282605 0.98814464 0.86425394 1.0460192
000150 2d b4 9b 3e 85 ee b5 3f 3f 5b 55 3f 92 2a 4b 3f
       0.304109 1.4213415 0.83342355 0.7936183
000160 da 1a ab 40 4b 3a 97 3d b4 84 d9 40 83 c6 a8 40
       5.347028 0.073841654 6.797449 5.2742324
000170 be cd 2b 40 c2 0e 1d 41 db f3 44 3f bb 5a 49 3e
       2.6844325 9.816103 0.76934594 0.19663517
000180 f4 c3 5d 3f 0e f0 f3 40 18 ff 98 3e 04 00 00 00
       0.86627126 7.6230536 0.2988212 6e-45
000190 7f e0 f3 3f bc 52 9a 40 53 f1 89 3f 22 f8 78 40
       1.9052886 4.8225994 1.0776771 3.8901448
0001a0 c1 3b 18 40 ec d3 84 40 1d b5 53 3f 5c f1 2d 40
       2.378647 4.1508694 0.8269823 2.7178564
0001b0 31 39 43 3f ac ec a9 3f ce 00 89 40 ac 5d 82 3f
       0.7625914 1.3275352 4.281348 1.0184836
0001c0 57 e0 91 3f f4 ab 40 3f a1 ba ec 3e 42 1a 2e 41
       1.1396588 0.7526238 0.46236137 10.881411
0001d0 d9 36 48 3f ae 69 83 3f b7 b7 40 3f 95 94 97 40
       0.7820869 1.0266626 0.75280327 4.7368875
0001e0 44 43 c1 3e 5d 66 33 40 09 e2 e7 3f 1f 50 81 3f
       0.37746632 2.8031228 1.8115855 1.0102576
0001f0 40 61 2e 41 eb 24 01 3e d2 3b 83 40 f7 d6 52 40
       10.898743 0.1261174 4.1010523 3.2943704
000200 06 4d f0 3f d4 17 e6 3f e3 a0 87 3e 89 95 8f 40
       1.8773506 1.7976022 0.26489934 4.487004
000210 4f e2 8f 3f a8 65 09 3f b5 84 50 3e d4 50 af 40
       1.1240939 0.5367074 0.20363124 5.4786167
000220 81 c3 25 3e 64 a8 01 3f fc 32 4d 3f 49 25 01 3f
       0.1618786 0.5064757 0.8015592 0.5044752
000230 ff dc bd 3e be a0 2e 40 c7 a5 1e 40 24 48 68 3f
       0.3708267 2.728561 2.4788682 0.9073508
000240 e4 a8 de 3e 4f 77 a3 40 49 dd ec 40 5a 32 48 3e
       0.43488228 5.108314 7.4020123 0.19550458
000250 51 74 13 3f 04 00 00 00 72 c5 11 3f 9e b5 04 3f
       0.5759936 6e-45 0.569419 0.51839626
000260 f3 f5 11 40 18 18 10 3f 2a 21 06 40 ed 42 7b 40
       2.2806365 0.56286764 2.0957742 3.9259598
000270 a8 67 9f 3f 17 b0 ad 40 55 50 85 40 af 5c 38 3e
       1.2453508 5.4277453 4.166056 0.18004106
000280 95 49 69 40 b5 9a 91 3f b4 8c 6f 40 47 59 e0 3f
       3.645116 1.1375338 3.7429628 1.7527245
000290 d3 a0 35 41 6b e5 fd 3f fa 12 fe 3f e3 76 0c 40
       11.351764 1.9835638 1.9849541 2.1947563
0002a0 2c 70 a3 40 85 7e 72 3e bc 6e 03 3e 38 2a d2 3e
       5.107443 0.23681076 0.1283521 0.41047835
0002b0 1c 67 51 40 66 8c 5f 3f a3 08 36 3f 5d 5a 81 40
       3.2719183 0.87323606 0.7110693 4.0422807
0002c0 54 d4 88 40 6b 31 ec 3f 0f f1 83 40 db 5e 60 40
       4.275919 1.8452581 4.123176 3.5057895
0002d0 40 dc 13 41 18 20 eb 3f eb d3 22 41 8e 68 af 3f
       9.241272 1.8369169 10.176738 1.3703783
0002e0 30 ed 39 3f ec ee 1f 40 98 25 eb 3f b5 81 26 41
       0.72627544 2.4989576 1.8370848 10.406667
0002f0 48 88 39 40 88 96 da 3e e2 91 83 3f f4 53 87 3e
       2.898943 0.4269297 1.0278895 0.2643124
000300 fd 8f 7e 40 56 b0 ab 3e 5d fd 72 3e 3d c4 5f 3f
       3.9775383 0.3353297 0.23729463 0.8740881
000310 60 09 21 40 df 99 a5 3e e8 0f 86 40 75 04 67 40
       2.5161972 0.32343957 4.1894417 3.609647
000320 a6 37 1c 41 78 3c 5a 3d 23 74 9c 40 e2 46 9d 3f
       9.763586 0.053280324 4.889177 1.2287257
000330 63 55 9d 40 5a e9 d6 3d 14 74 3c 41 dc d3 28 41
       4.916673 0.10493727 11.778339 10.5517235
000340 c4 3a 80 3f 23 0f 75 3e 5d a7 12 41 18 53 92 3e
       1.0017934 0.23931555 9.16586 0.2857902
000350 5c f9 e7 40 46 65 38 3f 97 7e 30 41 c7 6e a1 3f
       7.2491894 0.7202953 11.030906 1.2611932
000360 b2 75 63 3e 8c 38 69 3f f5 2c aa 40 6d 6c d8 3f
       0.22212866 0.9110191 5.317988 1.6908089
000370 cf 05 1c 41 10 2f d1 40 b9 75 f6 3e fc 03 2f 3f
       9.751418 6.536995 0.4813669 0.68365455
000380 ca b6 67 3f 97 66 ee 40 bc 0f 89 40 b1 a4 6e 3f
       0.9051329 7.450023 4.2831707 0.9322005
000390 61 87 05 40 e1 a6 8e 3f 41 3e 65 40 bf 03 44 41
       2.0863879 1.1144677 3.5819247 12.250915
0003a0 73 32 6b 3d f6 33 eb 3f b2 8a 89 40 6f 1b 3f 40
       0.05742116 1.8375232 4.2981806 2.9860494
0003b0 b3 c9 02 40 49 5f 36 3e 35 23 0b 3f d3 8b 3d 3f
       2.0435607 0.17809786 0.54350597 0.7404148
0003c0 1f 54 1e 41 2a 2c fa 3f 29 8b d3 40 5a 87 66 40
       9.895537 1.9544728 6.6107373 3.6020112
0003d0 91 37 97 3e f9 45 4a 41 7d c2 e6 3d 25 93 86 40
       0.2953458 12.642083 0.112675644 4.205462
0003e0 98 25 63 40 53 ba e0 3e 1b ef 98 40 bc a9 72 40
       3.5491695 0.43892154 4.7791877 3.7916098
0003f0 3f 5d 07 3e da 4c 34 40 fc 60 02 3f a9 b2 81 3e
       0.13219164 2.8171906 0.50929236 0.2533162

bn1.running_var f4 [256]
000000 81 da 60 41 60 ca af 41 82 ac ab 41 26 a0 a6 3f
       14.053346 21.973816 21.459232 1.3017623
000010 62 51 54 3f cf 08 15 43 5d f7 c4 41 84 c5 12 43
       0.8293668 149.03441 24.620783 146.77155
000020 89 7c db 41 ce 44 df 40 ef 80 7d 3f ad 86 ea 3f
       27.435808 6.977149 0.9902486 1.832235
000030 ef da 8e 3f ac 54 c9 40 2d d1 53 41 de da 96 41
       1.1160563 6.291586 13.238568 18.856869
000040 4f 52 65 40 d2 0a 53 42 49 6f 8d 40 57 c8 89 41
       3.5831487 52.760567 4.4198346 17.222822
000050 d2 b5 0b 42 ba 47 1c 42 57 23 84 40 e5 81 58 41
       34.92756 39.070045 4.129314 13.531713
000060 2e 1e 3e 40 58 b3 83 3e 9d 05 0e 42 a2 b0 a9 41
       2.970592 0.25722766 35.50548 21.211246
000070 df e3 de 3f 50 d9 c7 3f bb 5f b5 41 48 57 bd 41
       1.7413291 1.5613194 22.671743 23.667618
000080 ee d7 c4 41 df ec a3 3e 8c 53 e2 40 a6 73 33 42
       24.605434 0.32016656 7.0726986 44.862938
000090 d0 ad 03 40 a0 fb 66 40 d6 4b ae 41 3c b9 bd 40
       2.0574837 3.609108 21.78703 5.9288616
0000a0 07 47 ad 40 f9 36 05 40 a3 11 27 41 53 42 0c 41
       5.4149203 2.0814803 10.441806 8.766192
0000b0 97 4f b4 41 b0 f9 b3 40 ee ab 93 41 81 55 39 40
       22.538862 5.6242294 18.45895 2.8958437
0000c0 0c 5a 99 41 b5 94 6d 42 78 97 23 3f 8e ff 3d 41
       19.168968 59.39522 0.63903 11.874891
0000d0 a0 d8 04 42 3f 92 0e 40 ab 26 64 40 db da 78 41
       33.211548 2.2276762 3.56486 15.5534315
0000e0 5a aa 9d 41 8f 15 81 40 16 7d 88 41 cc 39 37 40
       19.70818 4.0338817 17.061077 2.8629026
0000f0 5a fd dc 41 64 42 c4 40 b0 00 c7 3e 79 99 f6 41
       27.623707 6.1331043 0.38867712 30.824938
000100 08 17 5c 41 13 90 6f 41 b4 af 32 3f 34 3e ed 40
       13.755623 14.972674 0.6979935 7.413843
000110 35 73 20 41 d8 ad f0 40 89 72 3d 43 33 81 f4 3f
       10.028127 7.521221 189.4474 1.9101928
000120 bd 9b ef 3f c9 c9 ec 40 d5 34 98 40 9b 31 41 40
       1.8719403 7.399632 4.756449 3.0186527
000130 4a 59 41 40 e0 ce ff 41 3e 32 0a 42 a0 89 ea 3f
       3.0210748 31.976013 34.549065 1.832325
000140 1e 15 26 43 a1 50 91 40 eb ee 65 40 12 d6 97 40
       166.08249 4.5410924 3.5927074 4.7448816
000150 bb 8f d2 3f d7 48 0c 41 25 52 b0 40 53 5a 90 40
       1.6450113 8.767783 5.5100274 4.511026
000160 f4 70 47 42 a9 0b a3 3e da eb 8d 42 ff bb 2b 42
       49.860306 0.31844833 70.96065 42.93359
000170 4b 8f bd 41 88 02 1b 43 b4 90 cf 40 b6 7e 88 3f
       23.694967 155.00989 6.486414 1.0663669
000180 f9 0e c9 3f d5 4e b8 42 71 1f ba 3f 04 00 00 00
       1.5707694 92.15397 1.4540845 6e-45
000190 7d 0f 87 41 26 2e ef 41 1d 95 18 41 63 64 b4 41
       16.882563 29.897533 9.536405 22.549017
0001a0 58 8b 35 41 53 e3 ef 41 96 c9 c7 40 ee 2a 58 41
       11.346519 29.985998 6.2433577 13.510481
0001b0 11 2b be 40 7d 46 4b 41 7b 67 d9 41 b3 c5 b9 40
       5.942757 12.704709 27.175528 5.805383
0001c0 bd e6 53 40 84 4f b5 40 14 f3 12 40 15 1a 37 43
       3.3109581 5.6659565 2.2960863 183.10188
0001d0 c4 49 20 40 d7 f8 8b 40 0d 6d 93 40 9b 95 30 41
       2.5045023 4.374126 4.607062 11.036525
0001e0 6f 30 ec 3f 48 cd ae 41 56 4f 30 41 d8 b6 cc 40
       1.8452281 21.850235 11.019369 6.39732
0001f0 b8 90 2f 43 a7 67 1a 3f ff 1b 95 41 cb 6f c2 41
       175.5653 0.6031441 18.63867 24.304586
000200 96 b0 39 41 6c 98 4b 41 c8 3a d1 3f f4 9f 01 42
       11.605612 12.724712 1.6346064 32.406204
000210 00 6d be 40 e3 fd 0a 40 d1 e7 27 3f 3b 0b 4a 41
       5.9508057 2.171746 0.655881 12.627742
000220 03 0b 4e 3f 87 50 4d 40 82 d7 66 40 f2 45 22 40
       0.8048555 3.20804 3.6069036 2.5355191
000230 48 db a5 3f dd c5 66 41 46 b1 4f 41 c3 ab f7 40
       1.2957544 14.423306 12.98078 7.739717
000240 de 81 03 40 90 29 28 42 84 90 82 42 e8 34 96 3f
       2.0548015 42.04059 65.28226 1.1734896
000250 01 be 74 40 04 00 00 00 1f 6e 24 40 13 9c 49 40
       3.824097 6e-45 2.5692213 3.150151
000260 8f be 55 41 18 11 1e 40 bc fe 5b 41 fb f0 c7 41
       13.359023 2.4697933 13.749691 24.992666
000270 cb 99 d9 40 c8 8d 37 42 00 9c 13 42 7c c6 76 3f
       6.8000236 45.88846 36.902344 0.96396613
000280 b2 7f 25 41 44 ba b2 40 8f 05 0e 42 0e fd 40 41
       10.343676 5.5852375 35.50543 12.061781
000290 d0 90 42 43 e6 e3 6b 41 ed df a9 41 33 4f ed 40
       194.56567 14.743139 21.234339 7.415918
0002a0 d4 3c ae 41 f3 a4 7b 3f 28 e8 21 3f 74 56 2a 40
       21.779701 0.9829857 0.6324487 2.6615267
0002b0 82 07 b5 41 6c e6 1a 3f 0d ec c1 40 66 bb e7 41
       22.628666 0.60507846 6.060065 28.966503
0002c0 6b 02 12 42 35 60 60 41 47 02 03 42 24 81 bb 41
       36.50236 14.023488 32.752224 23.438057
0002d0 a6 bc 07 43 ea 7a 68 41 88 91 22 43 d3 0c 39 41
       135.73691 14.530008 162.56848 11.565631
0002e0 a8 85 b8 40 87 eb b0 41 b2 e8 56 41 95 5b 25 43
       5.7663155 22.115004 13.43181 165.35774
0002f0 56 27 c5 41 85 4e 10 40 b2 f8 47 40 85 3c bb 3f
       24.644207 2.2547925 3.1245542 1.4627844
000300 d8 9f 8d 41 35 01 c5 3f b7 74 a4 3f ed 57 63 40
       17.703049 1.5390993 1.2848119 3.5522416
000310 dc 54 75 41 94 ff dd 3f 01 5a 14 42 5a 9c 8e 41
       15.333218 1.7343621 37.087894 17.826344
000320 eb ba 0e 43 50 12 3b 3e 5f d8 83 41 35 3d 05 41
       142.73015 0.18268704 16.48065 8.327443
000330 4b f0 0a 42 78 62 04 3f 68 be 55 43 c4 7f 22 43
       34.73466 0.5171275 213.74377 162.49908
000340 e5 25 4e 40 31 fa a7 3f 25 01 03 43 43 59 db 3f
       3.221063 1.3123227 131.00447 1.7136616
000350 bc 62 a6 42 fc 9c b3 40 23 75 3e 43 19 64 10 41
       83.19284 5.612913 190.45757 9.024438
000360 44 ce a3 3f 0a 55 92 40 83 88 3a 42 f7 1b 23 41
       1.2797322 4.5728807 46.633312 10.194327
000370 9b a6 2b 41 09 2f b8 42 38 b0 17 40 c4 38 89 40
       10.728175 92.091866 2.3701305 4.2881794
000380 5d 1b 30 40 62 32 c7 42 a8 41 f1 41 78 f7 f4 40
       2.7516701 99.598404 30.157059 7.6552086
000390 27 3f 29 41 27 b9 ad 40 f6 e2 84 41 5d 32 5c 43
       10.577918 5.4288516 16.61082 220.19673
0003a0 62 41 82 3e 2e 62 3d 41 77 c1 0d 42 bc 38 96 41
       0.25440508 11.83647 35.43893 18.777702
0003b0 46 c7 38 41 54 2f 70 3f e8 04 4a 40 96 66 b7 40
       11.548651 0.93822217 3.1565495 5.7312727
0003c0 7f 37 71 41 f0 42 60 41 8e 4b 7d 42 1e 6b 9a 41
       15.076049 14.016342 63.323784 19.302303
0003d0 01 21 cd 3f 59 a0 76 43 dc 5e f8 3e 68 09 e6 41
       1.6025697 246.62636 0.48509872 28.754593
0003e0 39 b5 e0 41 90 57 d5 3f 4a 61 17 42 7b 29 b6 41
       28.088488 1.6667347 37.84501 22.770254
0003f0 c7 66 1f 3f 19 4c ad 41 63 b9 34 40 e0 df b5 3f
       0.622662 21.662157 2.823815 1.4208946

fc2.weight f4 [128, 258]
000000 af 9d 87 bb 82 1b e1 bd 20 83 88 bc d2 fd ad bd
       -0.0041386704 -0.10991575 -0.016664088 -0.08495678
000010 5b 5e 03 bd ff 42 22 3d b7 88 a9 bd 26 f0 a5 bd
       -0.032072406 0.039614674 -0.082780294 -0.08102445
000020 71 34 e4 3d d7 30 83 be 97 5c 2e bd 51 be b4 bb
       0.11142815 -0.256232 -0.04256877 -0.0055158515
000030 a4 7b ac bd b2 f2 30 bd 59 50 c6 3d 79 ba 0f 3e
       -0.0842202 -0.043200202 0.09683294 0.14035977
000040 92 6f 73 3d 32 9e 5f bd 25 51 70 3d d0 c0 cc 3b
       0.059432574 -0.054594226 0.058671135 0.006248571
000050 23 79 e2 bc ad 86 4a bd 89 01 b0 3c cb 56 c0 be
       -0.027645653 -0.049444843 0.021485107 -0.37566218
000060 c0 e4 97 3d 0e 40 ea be 0c 13 6f bd 38 98 82 be
       0.074166775 -0.45751995 -0.058367774 -0.2550676
000070 df cc cd bc 7c c2 88 bd ea 58 f4 3b dd 25 95 3c
       -0.025122104 -0.0667772 0.0074568884 0.018206531
000080 96 f0 d3 3d 68 fc 24 bd 39 45 fa be c7 5f c8 be
       0.103486225 -0.040279776 -0.48880938 -0.39135572
000090 b2 a1 7e 3d 5c 69 9e be ed 6c 35 be 93 d3 cf 3c
       0.062165923 -0.30939758 -0.17717333 0.025369441
0000a0 d5 8c 01 bf 09 f7 8b be f8 b1 e5 bc f5 5a 23 3d
       -0.5060552 -0.2733691 -0.028038964 0.039881665
0000b0 56 b1 85 bd 5c 5f 85 3c 98 6d a3 3c 94 d3 ff 3d
       -0.06527965 0.016280822 0.01994972 0.12491527
0000c0 fc 9e 90 be cf 15 ed bc cb 2f 8c 3d 53 90 15 be
       -0.28246295 -0.028941063 0.06845053 -0.14605837
0000d0 60 a6 54 3e 4f 94 d8 bd 71 7a d0 bd da 73 ea 3d
       0.20766592 -0.105751626 -0.10179604 0.11447878
0000e0 06 8e cf 3b 58 86 f5 bb cc b8 e2 bd e0 32 5a 3d
       0.006334069 -0.0074928217 -0.110704035 0.053271174
0000f0 62 3f ad 3d b7 f6 5e be b4 64 8f 3d df c3 b9 bc
       0.08459355 -0.21773802 0.070016295 -0.022676406
000100 87 62 88 3e ee c8 c1 be 9d 83 ac bc 36 56 5b bd
       0.2663767 -0.3784861 -0.021058852 -0.053549014
000110 b1 91 ca 3d 89 66 06 be 0e 49 d7 be 3f 9f 82 bd
       0.0989107 -0.13125052 -0.42047924 -0.0637803
000120 90 32 64 bd 9e 50 ad 3d 1d 9d 99 be 19 3d 41 bd
       -0.055712283 0.08462642 -0.3000268 -0.047177408
000130 79 5c 99 3c 43 7e d5 3d 37 33 5a bb b8 e3 be be
       0.018720852 0.10424473 -0.0033294687 -0.3728311
000140 7d ae a4 be dd 7f b2 be e9 84 64 3d bf 1d 8e be
       -0.32164374 -0.34863177 0.055790816 -0.2775707
000150 b3 81 3c be cb f8 1b 3e b3 71 b6 3d b6 5e 35 be
       -0.18408851 0.15231626 0.08908405 -0.1771191
000160 4f ab 55 be a8 0e 9e 3d e2 b2 24 3e 86 a4 c6 bd
       -0.2086613 0.07717639 0.16083863 -0.09699349
000170 64 41 b4 bc 54 fe ad 3d ad 72 11 bd ef a2 cc bb
       -0.022003837 0.08495775 -0.035509754 -0.006245009
000180 bd 30 af 3c fc ff 96 3d 3a 1d b2 bd 8a 75 e2 bc
       0.021385545 0.07373044 -0.08696981 -0.027643938
000190 2e 05 ec bd 5d 75 0b be 52 34 9b be 0d 38 85 be
       -0.115244254 -0.1361899 -0.30313355 -0.26019326
0001a0 b5 c2 cb bb 79 89 52 3d 81 e3 54 be e8 e9 48 bd
       -0.0062182792 0.051400635 -0.20789911 -0.049051195
0001b0 e0 cc b4 bd 7b 9f 2c bd eb f2 b0 3d 8b 6c 11 bd
       -0.08828139 -0.04214428 0.08640083 -0.035503905
0001c0 02 45 eb 3c fd e4 9e bd 14 ea aa 3c 59 c0 14 3e
       0.028719429 -0.0775852 0.02086357 0.145265
0001d0 8a f1 8e be 37 26 2a 3d da e8 2a be 8f a8 f8 3c
       -0.27918655 0.04154035 -0.16690388 0.030353813
0001e0 8b 93 a3 bb b7 69 8b 3d 0f 2c 80 be 1d bc 41 bd
       -0.0049919537 0.06807273 -0.25033614 -0.04729854
0001f0 db 99 c5 be d3 52 8a bd b1 f8 8b bd 15 72 55 3d
       -0.38593945 -0.06754079 -0.068345435 0.05211075
000200 06 b4 d5 bd 1d 5e 68 be 5e 04 56 bd 6c 47 e0 bd
       -0.10434727 -0.22692151 -0.05225026 -0.10951123
000210 fb 1c 0c be df 0e b7 be f2 0b 89 3d bf 44 74 3d
       -0.1368293 -0.35753533 0.066917315 0.059635874
000220 5a f4 a9 3d b2 9a bc bd 5f 5b ac 3d bc 92 1b be
       0.082985595 -0.09209193 0.08415865 -0.15192693
000230 f7 2e 93 bd 43 70 10 bc 5a d0 40 bc c2 29 58 be
       -0.07186692 -0.008815828 -0.011768425 -0.2110968
000240 db 49 3b be d3 60 a6 3d 88 89 d0 3d c9 c9 85 bd
       -0.18289892 0.081239365 0.10182482 -0.06532628
000250 3a d7 99 be 26 17 e1 3d 81 b1 f1 bd bc 26 8a 3d
       -0.30047017 0.10990743 -0.11801434 0.06745669
000260 7b 76 23 be 23 65 c9 3c 62 d4 ab bd 8b f2 2d be
       -0.15963165 0.024584359 -0.08390118 -0.16987054
000270 45 ba f8 bb 19 10 d3 3d ea 52 5f 3e e6 69 0a 3e
       -0.0075905644 0.10305805 0.21808973 0.1351696
000280 29 92 20 3e 44 7e 9b bd 40 9b 12 3d ed 35 e7 3b
       0.15680756 -0.07592443 0.03579259 0.007055989
000290 06 31 60 be 2c 6e 0e bd 7a de 96 3b 1a 17 69 bd
       -0.21893701 -0.034773037 0.004604158 -0.056906797
0002a0 90 81 46 3d 02 9b 80 3e 0f a3 1d bc e7 14 56 3e
       0.048463404 0.25118262 -0.009621396 0.20906411
0002b0 7b c7 18 bd 69 37 bc 3d 38 31 87 bd af 63 4b bc
       -0.037299614 0.09190256 -0.066011846 -0.012413903
0002c0 b3 c0 0a bd e6 f3 bc 3d e5 4a a0 bd 99 c5 6b 3d
       -0.03387518 0.092262074 -0.07826785 0.05756149
0002d0 72 b1 c1 be 3f db c0 be 9b 47 1b 3e 44 82 34 be
       -0.37830693 -0.37667271 0.15164034 -0.17627817
0002e0 2f 4f 4f bd bc da a2 bd d0 27 a3 bd e0 e9 4b bd
       -0.050612625 -0.079518765 -0.07966578 -0.049783587
0002f0 52 dc 09 be ac aa 27 be 2d c6 97 3c 0c c4 89 bb
       -0.13462952 -0.163737 0.018527115 -0.004204279
000300 4c 89 20 be 43 75 42 be c5 93 64 be d9 84 3a be
       -0.15677375 -0.18990044 -0.22321995 -0.1821474
000310 0f 8d fe bd b8 87 a0 bb 74 4d c2 be 40 ea 8a bd
       -0.124292485 -0.0048989914 -0.37949717 -0.06782961
000320 44 62 95 bd 7b af cf 3d 35 1c 65 bc 4b c6 00 be
       -0.07294133 0.10140892 -0.013983776 -0.12575643
000330 fc 1f 8d bd 90 3c 38 bd 37 c4 43 3e 1b 12 88 be
       -0.06890866 -0.044979632 0.19117819 -0.26576313
000340 5a ea ba 3d dc 0b 19 3e 8e 8a 0f be cc da 3a be
       0.0912673 0.1494593 -0.14017698 -0.18247527
000350 2b 36 e1 3c 56 f3 59 be 66 9e 14 bc c3 3b ce 3c
       0.02749165 -0.21284232 -0.009070968 0.025174981
000360 1c 05 cf 3b ef d2 12 be 81 91 c2 3d 03 24 5c 3e
       0.0063177478 -0.14338277 0.09500409 0.21498112
000370 bb 71 89 3e 23 28 44 be ca c3 c5 bd 54 8e ad bc
       0.26844582 -0.19155936 -0.096564844 -0.021186031
000380 b9 46 45 3e 01 2c af bd 49 78 a5 3b 25 c1 29 3e
       0.1926526 -0.08553315 0.0050497395 0.16577585
000390 f6 61 0d 3c 35 d0 28 3e ff 71 3a bd 80 c2 9d be
       0.008629313 0.16485675 -0.04551887 -0.30812454
0003a0 94 e0 2c 3c 16 6e 23 be 6d 2a 2c bd ea 68 5b be
       0.0105515905 -0.15959963 -0.042032648 -0.2142674
0003b0 00 01 ae bd fa 53 30 3c dc 6a 10 3e 26 cc bf bc
       -0.084962845 0.010762209 0.14103264 -0.023412775
0003c0 82 c8 f0 3c 79 eb f8 3c b3 83 62 3d da a9 67 3e
       0.029392485 0.03038572 0.05530138 0.22623387
0003d0 53 c3 a1 3d f9 60 bb bc 95 37 9e b9 b8 ec f9 3c
       0.07898583 -0.022873389 -0.0003017752 0.030508384
0003e0 0a fb f7 bd 27 a2 35 be ea 1b cd 3d 97 b1 70 3e
       -0.12108429 -0.17737637 0.1001509 0.23505245
0003f0 c4 cd 91 bd ae 75 17 3d 19 97 c3 bd 1e 01 51 be
       -0.07119325 0.036977462 -0.09550304 -0.20410582
