Policy_Based_Methods_Continuous_Control/checkpoint_critic.pth (torch, 87895 bytes, 5 tensors)

fcs1.weight f4 [128, 33]
00000000: 6d21 ab3e bf5e af3e ae09 d13e 3dfa 2cbf
00000010: 87ce 92bf 88cc 423f 8517 453d 85ef 3b3c
00000020: 2e6c 6f3e c068 b43d 749e 993d 2454 02be
00000030: ec30 393e 26ad 773e 9a1d 68be 8ec5 03bf
00000040: 90ae 833f f52f 15bf 8891 5dbd 50c8 5e3c
00000050: c451 4fbb b534 b4bc 5431 d03d dad4 1c3d
00000060: 874e 14bc c228 7f3d 5786 babd 528d 2e3f
00000070: b30d 873e 4018 c53a 5545 26bf 0093 af3a
00000080: 1e53 0b40 0181 ec3e cf8e c63e 658b d43e
00000090: 5f03 453e d1da a9be 2aff 2f3e bd80 003e
000000a0: de44 b1b8 daa6 083e ebaa cdbd 4164 963c
000000b0: 8d8d d7bc 19ed 0cbc 4c6d 56bf 26f2 0bbe
000000c0: 2a95 23bf 939e 153f 9439 4abd aaaf 213e
000000d0: 78aa 893d 0e89 84bd 81f9 8e3d b8a1 353d
000000e0: 7929 a4bd 141d 493c 7944 c0bd 7dcf 143f
000000f0: 7e81 ce3e 60e4 a33e fc29 d7bc a144 b9be
00000100: 60fc dabc 7681 70bf ba55 c3bd e59b 2ebf
00000110: fba9 1b3f c2ca debe 1f4a cdbe d54e e03e
00000120: e2fd 04bf 6355 813d e138 c93e 1658 963e
00000130: 224d 45be 5bc2 4bbd 8f7a 2c3e 9d58 f9bc
00000140: a165 b53e 1770 5dbe 077c 9bbe 3729 ba3d
00000150: 0f4b fbbe 9f3c 83be fab6 b73d 2a41 6b3d
00000160: f9e4 fb3d 0975 c63d 3406 d8bc b713 a7bd
00000170: 7465 303e df22 a33e 4f60 90be f3ff 943d
00000180: 5b56 a4be b234 f1bc b870 a33f d250 eabe
00000190: 196f 333d 225e 01bf bde1 b8be 7382 87bf
000001a0: 053e 833f 8e73 39bf 545a 0fbe 9f00 053f
000001b0: 55ff c23d 7495 3bbd a0c9 24bc 99d7 83bd
000001c0: 3db1 8a3e 5e51 4abe 7797 443e 295e 293e
000001d0: 54f8 4a3d 3e58 88bd 13b4 b1bf daa0 babb
000001e0: f661 0b3e de23 1cbc b721 ecbd 8d05 243c
000001f0: af1c f03d 6cf8 b03e 8b35 443f c058 023e
00000200: 33b2 943d 6f39 46bf 5f3c 8f3d 31d6 3fbe
00000210: 82e8 033e 8003 be3d 1799 ac3d c715 babd
00000220: ad14 943f 1372 a2bf c1dd 0c3d b3ec 0e3e
00000230: 8747 3dbe 54b0 323f 4edd d6bd 34f8 38be
00000240: 58ce ba3e a3ef f1bd 2129 e1be f81d ab3d
00000250: b4a1 74be 7993 233f e68d 30bf a6b3 a3be
00000260: f999 353e 5425 47be 02e0 d1bd 1e93 0c3e
00000270: 80d2 abbc e49d e7bd 7df6 dc3d dbd3 313f
00000280: cf54 75be 78d1 9fbc c7bb 45bf 9e30 1a3d
00000290: c6ed 993e de21 643e 3983 2dbf b7ac 0f3d
000002a0: b4e4 f2be c2a6 cfbe 8fc8 033e 7e77 d23f
000002b0: c0b6 e0bd abc5 61be bd9b 14bf 6297 1a3e
000002c0: f6f0 2ebe 4c05 96be 9248 be3c 2ad9 b83e
000002d0: ea3f aabe d48e 3b3e c8f6 223f bc3b bfbd
000002e0: a0ee 833f ed5a 6cbe 7c96 5a3c 7f7d f13c
000002f0: 1f06 d13b 6231 ccbb 3687 953d 0ad1 2ebe
00000300: 488e 823e 60d8 393e a8cd 2dbd 76bb 8bbe
00000310: 684b 26bd 80cc 4e3f 75f8 403e aafb fe3e
00000320: bd90 c1bc 16df 3abf 9df1 ccbf f888 73bf
00000330: 897f 743f 5672 303c a11d d6bd 2c58 a3be
00000340: 7740 063e 899e a6bc 0a75 073e acfe b9be
00000350: 7364 17be 93d8 763e 4c2f e73d 3d2c 9bbf
00000360: 5d31 983f 8220 04be ad0a 4f3e eca9 2e3e
00000370: ec5f 3b3d fef2 84bd c436 cf3d f5cd 3c3d
00000380: a3aa 1abe 680a 103f 7832 04bd 3f07 923d
00000390: 31f0 1dbf 8bba 8f3d 8be0 863e 2346 2bbe
000003a0: eae8 cbbe a408 ec3d 83a1 cd3f b177 a03e
000003b0: c4d6 99bf 3eac 90be 3b07 41bd b834 c43e
000003c0: 31dc fe3d 6436 f3bc 86b8 8fbd 912c 18bb
000003d0: 593c e2bc c43b d33d 6cb8 31be eb16 20bf
000003e0: 4ab6 bdbf 6c70 033e 50c2 843e 3cfd b63d
000003f0: 1deb 823d 6618 08be fd20 5dbe 655d 48bb
0.3342394 0.34251973 0.40827698 -0.67569333 -1.1469277 0.7609334 0.048118133 0.01147068
0.23381111 0.08809042 0.07500926 -0.1272741 0.18085068 0.24187145 -0.22667542 -0.5147332
1.0287647 -0.582763 -0.054093868 0.013597563 -0.003163443 -0.021997789 0.101656586 0.03828893
-0.0090519255 0.06229473 -0.091076545 0.6818439 0.2637764 0.0015037134 -0.6494954 0.001339525
2.176948 0.46192172 0.3878083 0.415126 0.19239567 -0.33174756 0.17187181 0.1254911
-8.452845e-05 0.13344899 -0.10042366 0.018358352 -0.026312614 -0.00860145 -0.83760524 -0.13666591
-0.6389948 0.5844509 -0.049371317 0.15789667 0.067219675 -0.064714536 0.06981183 0.04434368
-0.08015723 0.012274999 -0.0938806 0.581291 0.4033317 0.32010174 -0.026265137 -0.36185172
-0.02673167 -0.9394754 -0.095378354 -0.68206626 0.60806245 -0.43514067 -0.40095612 0.43810144
-0.51949894 0.06315114 0.39301208 0.2936408 -0.19267705 -0.0497459 0.16843627 -0.030437762
0.354291 -0.2162479 -0.30368063 0.09089892 -0.49080703 -0.25632188 0.08970447 0.057435192
0.122995324 0.096902914 -0.026370145 -0.08158057 0.17226201 0.31862542 -0.28198478 0.07275381
-0.32097134 -0.029444072 1.2768774 -0.45764786 0.043807123 -0.5053426 -0.36109725 -1.0586685
1.0253302 -0.7244195 -0.13999301 0.5195407 0.09521357 -0.045796826 -0.010057837 -0.06437606
0.27088347 -0.19757602 0.19198404 0.16539825 0.04955323 -0.06657456 -1.3883079 -0.0056954445
0.13611588 -0.009530036 -0.11529868 0.010011089 0.11724221 0.3456453 0.766442 0.12729168
0.07260551 -0.77431387 0.06993937 -0.18734051 0.12881663 0.09278011 0.08427637 -0.09086185
1.156881 -1.2691063 0.03439117 0.13957481 -0.18484317 0.69800305 -0.10491429 -0.18063432
0.36485553 -0.11813285 -0.4397669 0.083553255 -0.2388981 0.638969 -0.6896652 -0.31972998
0.17734517 -0.19447833 -0.10247804 0.13727996 -0.020974398 -0.11309412 0.107892014 0.6946389
-0.23958133 -0.019509062 -0.7723965 0.03764402 0.3006422 0.22278544 -0.67778355 0.035076823
-0.47440112 -0.40556914 0.12869476 1.6442716 -0.10972357 -0.2204806 -0.5805014 0.1509681
-0.17084107 -0.29300916 0.023227964 0.36103183 -0.33251888 0.18316203 0.6365781 -0.09337565
1.0307198 -0.2308156 0.013341542 0.029478787 0.0063789035 -0.006231473 0.0730118 -0.1707193
0.25499177 0.18148947 -0.042432457 -0.2729146 -0.040599257 0.8078079 0.18844779 0.4980138
-0.023628587 -0.7299665 -1.6011235 -0.9513087 0.95507103 0.010769447 -0.1045487 -0.31903207
0.13110529 -0.020339267 0.1322824 -0.36327112 -0.14784412 0.24106054 0.11288318 -1.2122875
1.1890064 -0.12903026 0.20218916 0.17057008 0.045745775 -0.064916596 0.101178676 0.046094853
-0.15104155 0.5626588 -0.032274693 0.07130288 -0.6169463 0.07018002 0.26343188 -0.16725974
-0.39826137 0.115250856 1.6064914 0.31341317 -1.2018666 -0.2825641 -0.047126036 0.3832147
0.12444342 -0.029689021 -0.07017617 -0.0023219923 -0.027616667 0.10314134 -0.17355508 -0.6253497
-1.4821255 0.12835854 0.259295 0.089350194 0.063925005 -0.13290557 -0.21594615 -0.0030573246

fcs1.bias f4 [128]
00000000: e586 50bf 58d8 13bf 9c99 0bbe 4c54 37bf
00000010: c343 47bf f218 cbbe d124 edbe 341d 13bf
00000020: 6ed9 4cbf 276a 49bf 39ab e1bd 143f 813e
00000030: 79e4 e2bd 8c88 61bf 2f24 cebd 2dab 06bf
00000040: 5e5a 56bf c136 afbe 41ce 45bf b87e 55be
00000050: 4db8 a3be 9d24 01bf ac88 35bf 56b0 0abf
00000060: 2b6c 443e ee00 bdbe 43dd 0c3e 2b32 e03d
00000070: 222a e4be 84a3 30be 2312 50bf 28bd 61be
00000080: 78d7 01bf aac2 17bf 1e04 77be 51bd 043d
00000090: 9cc0 91be 6e5d 18bf b93c 31be 35c3 ad3e
000000a0: 9bff 8bbe ddf2 a6be e994 6cbf 300d 34bf
000000b0: d9b1 4cbf 7489 b43d a0fb d7be 00bb 63bf
000000c0: 68df 66be 4670 49bf 2ae5 403d 2dc6 23bf
000000d0: 14ce e6be 49ec 54bf 8750 ee3c c0e4 fbbd
000000e0: 519c 24bf 1928 73bf da03 33bf 9229 15bf
000000f0: 01b8 87bc 7019 23be 7de5 b3be 6a76 04be
00000100: f938 3ebe 741b 22bf 0ec2 05bf e0ed 34be
00000110: a3f4 36bf 5b63 43bf 2feb 39bf 72e6 67bf
00000120: de4d 52bf 01aa 2ebf a33f 1fbf d114 1bbe
00000130: 5b61 05bf 9573 cdbe da6c 2cbe ec60 3cbf
00000140: b210 4abf 3357 00bf 537d 86bf 0838 eabe
00000150: 34d9 27bf 1560 20bf 13ea b9bd 8e18 89be
00000160: 36a0 7f3d bb45 58be 725d 21bf 7b8e 23bf
00000170: 2497 0abf bdfc e0bd 2f71 e0be fe56 34bf
00000180: d960 30bd 3c06 19be 39b1 ecbe 83a1 21bf
00000190: b495 5cbf 6822 aabe 77ee 59be 0046 46bf
000001a0: 8d6d 2abf b2d2 c3be 1e0d 2d3e ed87 a2be
000001b0: 43e3 90be 9ec6 55bf c9e9 84be 7bda 33bf
000001c0: f786 4abf ef06 77bf 63ec 11bd 9381 62be
000001d0: 1203 3b3f 5b31 08bf df28 08bf af0f 23bf
000001e0: 70e7 03bf 1b68 2bbf 1cbb 2dbf d1bb 22be
000001f0: 0283 49bf 38f2 f7bd d8e4 a5be d42e a13e
-0.8145583 -0.5775199 -0.13632816 -0.71613 -0.7783777 -0.3966747 -0.4631715 -0.57466435
-0.8001927 -0.786776 -0.11018986 0.25243437 -0.11078734 -0.8809898 -0.10065495 -0.52604944
-0.8373164 -0.3422146 -0.77267843 -0.2084912 -0.31976548 -0.5044649 -0.7091167 -0.5417532
0.19181888 -0.36914772 0.1375628 0.10947069 -0.44563395 -0.17249876 -0.81277674 -0.22044814
-0.50719404 -0.5928141 -0.24122664 0.03240711 -0.28467262 -0.5951756 -0.1730832 0.33937994
-0.2734345 -0.32607165 -0.9241472 -0.7033262 -0.79958874 0.088152796 -0.42184162 -0.88957214
-0.2254616 -0.7868694 0.047093548 -0.6397427 -0.450791 -0.8317304 0.029091133 -0.1229949
-0.6430102 -0.9498306 -0.6992775 -0.58266556 -0.016567232 -0.15927672 -0.35136023 -0.12935796
-0.18576421 -0.6332314 -0.5224923 -0.17668867 -0.71467036 -0.7632348 -0.72624487 -0.90586007
-0.82150066 -0.68228155 -0.62206477 -0.1514466 -0.5210168 -0.40127245 -0.16838399 -0.7358539
-0.78931725 -0.50133055 -1.0506996 -0.45745873 -0.655658 -0.6264661 -0.09077849 -0.26776546
0.06240865 -0.2112035 -0.6303321 -0.6388928 -0.5413687 -0.10985706 -0.43836352 -0.7044524
-0.04306111 -0.14943784 -0.4622896 -0.6313707 -0.8616593 -0.33229375 -0.21282373 -0.7745056
-0.6657341 -0.38246685 0.16899535 -0.31744328 -0.28298387 -0.8350619 -0.25959614 -0.7025525
-0.7911219 -0.96494955 -0.035625827 -0.22119741 0.7305156 -0.5320031 -0.53187364 -0.63695806
-0.5152502 -0.6695573 -0.6786363 -0.15891959 -0.7871553 -0.121067464 -0.32401156 0.3148104

fc2.weight f4 [128, 132]
00000000: 25c0 783d e5c5 083f d26e 25be 491d 7d3d
00000010: 36d7 a83e 5141 e6be 4e54 16bf 1973 04be
00000020: 26b8 5cbd b920 353e 4819 f8be c596 afbd
00000030: b4d7 d63d b32f acbf a05e b2be 90f9 98be
00000040: 0d46 fbbe 07a0 e83e 1504 003d 8ead da3e
00000050: c371 3ebf 2648 edbc c1f1 57bf 4121 33bf
00000060: 755f af3e c1e1 2fbf 5c2b 48bc 53ad 943c
00000070: 57d4 58bf dd18 cfbe 238d 0ebe 2242 30bf
00000080: 117b 8cbe d15f 82be 3dd4 953e afa4 06bf
00000090: 7808 a33b c4c2 d0bc 53de d0be 47c1 51bf
000000a0: 4312 b1be 6a07 063f c71e 74bf f9d9 2dbf
000000b0: 57ca 0cbf 781c abbf aede 193e a234 86be
000000c0: a4ac 9fbd 1f7b 4c3f d269 0fbe 3b3a 453f
000000d0: 5f77 953d 9c41 b03b b44d 6fbe 1e24 e8be
000000e0: 992c 2bbe d6c4 a03e 468f 80bf 8f06 6dbd
000000f0: 945f 12bf 50a7 09bf a73f 8f3d 48a7 04bf
00000100: 7378 e83d 9f2b 2c3e 4084 07bf 8913 99bf
00000110: a429 adbe 1a4d 0a3e 7c17 6b3e da61 e33c
00000120: 34f2 e5be 2952 f73e c9b4 133e 2370 e43d
00000130: fe67 d9be c567 1bbf 722e debe 4261 9fbe
00000140: aba2 f5be 3377 703e 12b8 01bf 4515 80be
00000150: 09ee b4be da35 d4bd c5df c0be 175f 503c
00000160: 5c91 b3bf ddc6 71bf 18e4 ffbe bab7 15be
00000170: 263f c0bf 2698 603e 5283 bebf 28af 0a3f
00000180: fbb9 b5bd f494 6bbe 1eea c7bf 1e27 d0bf
00000190: 401e c0bf c33e 7b3e 0593 3cbd 6b88 cabe
000001a0: 0e0c 1c3f fb8a 83be a5a0 133e a148 d0bd
000001b0: 6589 acbc 8237 e0bd bc99 473e 0b92 8dbe
000001c0: 843b f2be efd3 44bf 1ba5 acbc 638d 06bf
000001d0: d733 09bf ea85 2bbf 7706 81bf 7980 e2bd
000001e0: eee9 a8be 79bd 4ebf 7321 0bbf 4691 ff3e
000001f0: 7cae 3cbf 5559 c2be c393 34bf 4215 f13d
00000200: b28f ad3e db33 243d 1478 1cbe ca83 9d3e
00000210: 0657 8a3d c065 a6be be0a 4dbe c23f 47bd
00000220: ca4e 42bc 7bfe e3bd e456 fdbd f8f7 353b
00000230: 9719 24be e774 943c 7b9c ac3c a491 dbbc
00000240: 74af 57be 362b 27bd bd8d a83d 1222 efbb
00000250: 6ebd c1bd d69e b4be 7e70 153e 56b8 99bd
00000260: 101e b8bd cd42 3e3d 98e2 16be 304b 7d3c
00000270: 94a6 1bbd c741 97bc bfd4 dabd 16ac d33d
00000280: 2084 f83c 637c 09be 3f83 01be d8fd 83bd
00000290: d3e4 b43c cebc 28be 2c1d 73be 3a64 d53c
000002a0: 5c0f b5bd 2af8 d13d aeb6 45be d69e b43c
000002b0: c5c4 77be 05c8 20be af00 fcbb c8e4 80bd
000002c0: 60a2 f43d e62b 8e3d d429 99bd c449 013e
000002d0: 06c0 843d 9c30 fa3c 96d6 ffbc 6bac 37be
000002e0: 5695 0a3c c41d 03bd 4879 ebbd d8f6 063d
000002f0: 2247 0abe 8f11 04be b681 c8bd 9ba2 12bd
00000300: 6fac ae3c b842 09be cfe6 6ebd 1cc9 c8bd
00000310: 0ec6 48be 25a3 05be 2f27 4bbd f3cb a3bc
00000320: 5639 c43a 0216 0d3d 06c3 283e c3c7 a3bd
00000330: 6ae2 4ebc cd91 32be 1da2 10be bdd8 b93d
00000340: 835a 8fbe d60c 9c3d aa73 27be b9c0 5ebc
00000350: c6ab 9bbc 8c2a 09be 7fb9 bcbd 490e 43bc
00000360: 48ec 84be 1a6a 293c d53a 38be a220 58bc
00000370: d6ac 67bd 924e 0bbd a4c1 7cbe 9c0f c13d
00000380: cb01 0fbe 3c14 fcbd 28c1 7abd e1f9 4abe
00000390: 5394 1f3d 3b00 23be ff0f 2c3d 3a2c 7bbe
000003a0: 222c b43d d099 8dbd f52b a6bc 0bbf eb3c
000003b0: be51 4f3d 3476 053e 73d8 e5bd 3fba e7bd
000003c0: 2d3e e1bd d331 48bd 6a24 83bd 48de 04bd
000003d0: 537b fc3d 5e7d b3bd 598c 7fbe 01b4 5bbd
000003e0: 29cb bfbc b44d 5abe 56dc 90bc f333 003b
000003f0: 232f 823d 1488 ee3c 1cd9 a8bd 8590 bfbd
0.06073012 0.53426963 -0.16155556 0.061795507 0.32976693 -0.44971707 -0.5872239 -0.12934531
-0.053886555 0.17688264 -0.48456788 -0.08573679 0.10490361 -1.3452057 -0.34837818 -0.298779
-0.49076882 0.4543459 0.031253893 0.42710537 -0.74392337 -0.028965067 -0.8435326 -0.69972616
0.34252515 -0.6870385 -0.012217369 0.018149054 -0.84699005 -0.40448657 -0.13921027 -0.6885091
-0.27437642 -0.25463727 0.29263487 -0.5259504 0.004975375 -0.025483496 -0.4079462 -0.8193554
-0.34584245 0.5235506 -0.9535946 -0.67910725 -0.54996246 -1.3368063 0.15026352 -0.2621203
-0.077966005 0.7987537 -0.14005211 0.7704198 0.07298159 0.005378915 -0.23369485 -0.45340055
-0.16716231 0.31400174 -1.0043724 -0.057867583 -0.5717709 -0.53770924 0.069945626 -0.5181775
0.11351099 0.16813515 -0.5293617 -1.1959087 -0.33820832 0.13505974 0.22958177 0.02775662
-0.4491135 0.4830487 0.14424433 0.11154201 -0.42462152 -0.60705215 -0.4339481 -0.3112889
-0.47975668 0.23482971 -0.50671494 -0.25016227 -0.35337856 -0.10361834 -0.37670723 0.012717984
-1.4028735 -0.94444066 -0.4997871 -0.14620867 -1.5019271 0.2193304 -1.4883826 0.5417352
-0.088733636 -0.2300604 -1.5618322 -1.6261938 -1.5009232 0.2453566 -0.046038646 -0.39557204
0.60955894 -0.2569197 0.1441675 -0.10170103 -0.021061609 -0.10948087 0.19492239 -0.27650484
-0.47311032 -0.76885885 -0.021074822 -0.5255949 -0.53594726 -0.6700121 -1.0080098 -0.110596605
-0.32990974 -0.8075786 -0.54347914 0.49915522 -0.7370374 -0.3795878 -0.70537966 0.11771633
0.33898693 0.040088516 -0.15280181 0.3076461 0.0675488 -0.32499504 -0.20023629 -0.04864479
-0.011859605 -0.11132523 -0.12370089 0.002776621 -0.16025387 0.01812215 0.02107071 -0.026802845
-0.21063024 -0.040812694 0.082301594 -0.0072977627 -0.09459959 -0.35277432 0.14593694 -0.075058624
-0.08990109 0.046450425 -0.14734876 0.015459821 -0.03800066 -0.018463982 -0.10685109 0.10335557
0.03033644 -0.13426356 -0.12647723 -0.06444901 0.022081768 -0.16478273 -0.23741597 0.026048768
-0.0884082 0.10252412 -0.19307968 0.022048395 -0.24196155 -0.15701301 -0.007690511 -0.062936366
0.11945033 0.06941967 -0.07478681 0.12625796 0.06481938 0.030540757 -0.031230252 -0.17936866
0.008458456 -0.03201081 -0.11497742 0.032950252 -0.13503698 -0.12897323 -0.097903654 -0.035799604
0.021322457 -0.13404357 -0.058325585 -0.098039836 -0.19606802 -0.13050516 -0.049597915 -0.019994712
0.0014970701 0.034444816 0.16480646 -0.07997086 -0.0126272235 -0.17438431 -0.14124341 0.09074543
-0.27998742 0.07619636 -0.16352716 -0.013595753 -0.019002806 -0.13395137 -0.09215068 -0.011905261
-0.25961518 0.010340238 -0.17991193 -0.013191374 -0.056561314 -0.034010477 -0.24683243 0.094268054
-0.13965528 -0.12308547 -0.061219364 -0.19821884 0.038959812 -0.15918057 0.042007443 -0.2452859
0.0879748 -0.06914103 -0.020284632 0.02877762 0.050615065 0.13033372 -0.11222925 -0.113148205
-0.10998187 -0.04887564 -0.0640343 -0.032438546 0.1232821 -0.08764146 -0.24955882 -0.053638462
-0.023412304 -0.21318704 -0.01768319 0.0019562214 0.06356647 0.029117621 -0.08244535 -0.09353737

fc2.bias f4 [128]
00000000: 6c2a 10be fe79 ebbd dbd8 f3bd a9a4 b43f
00000010: e439 71bd 51ee 8dbd 3c32 4bbd f419 21bf
00000020: 1f91 2ebd 9b54 2abe f474 b6bd bcc2 963d
00000030: b5d9 593f d6c3 1cbe f040 09be 147e 923b
00000040: a23d dfbd fb7d 933d 1b53 cabd 56dd 44bc
00000050: 12f6 9e3d e099 f8bd 7bc2 7fbe 6cda 133f
00000060: 1b9f a8be cd80 9fbc 4930 9cbd 1ecb cebd
00000070: 51e9 f4bd 52db ec3e 199b 163f 9ee1 be3e
00000080: f860 823b bcad b5bd 01f0 033b 0352 64be
00000090: 8b84 bdbc 0e0d aa3e 2b16 653e 06b2 2f3e
000000a0: d867 44be 20b2 8bbe fbda e33b 81fe 33be
000000b0: c5bc 07be 9ccc 0cbe 0ca7 e93d 6348 8f3f
000000c0: ca32 723f 09c2 a7bc 8e9f e1bd 4b67 5dbd
000000d0: a7a2 07bd 93d9 04bf 8874 503f 7134 89be
000000e0: 84d7 1cbe 3d5d 833c 5f6f c33c dafb cb3e
000000f0: fcb3 063e 35cc a2bd 8f00 f6bd c92b d9bd
00000100: d8cd dabd 1f38 be3e 801b a9be 9221 103f
00000110: 45f9 e5bd 7be0 11be e979 14be c1fc 1ebe
00000120: bcc6 4ebe c44a 1e3d 6463 4a3f 888e febb
00000130: 6f9b 16bd 97ca 12be 858d fd3e 86c9 fabd
00000140: 62bd 15bd 586c c2bd a2fb 643e 4691 fbbe
00000150: 7725 e7be e474 d8bd dcac 103f 259b a6bc
00000160: c43e b3bd df10 e5bd 0167 4bbd 7567 e33e
00000170: d356 38be cf9d 453f 9cee 21be 5612 a9bd
00000180: 2918 c0bd 60f4 e6be 2b2b 82be 9b6a 47bf
00000190: 4eac 94bd 555d da3c d1fb 3cbf 56c8 b9be
000001a0: 7fe1 19be f2c5 a93f afa6 f5bd 6c54 17be
000001b0: 3dcc 07be 2b43 953e f23e e4be 796f 2cbe
000001c0: 306f dd3e 4f5b da3d 320e e4bd b03d 4cbd
000001d0: 6fd5 34be 7d43 e73e c821 673e a7d2 a0bc
000001e0: a8de 7fbd 7b16 07be f0ab dabd f4fe 88be
000001f0: 8a8a 8abd b311 863f fc3b 01be 6eaf ec3e
-0.14078683 -0.114978775 -0.11906596 1.411275 -0.0588931 -0.06930221 -0.049608454 -0.62930226
-0.042618867 -0.16633837 -0.08909026 0.073613614 0.8509782 -0.1530908 -0.13403678 0.004470596
-0.109004274 0.07201763 -0.09879132 -0.012015661 0.07761778 -0.12138724 -0.24976532 0.5775516
-0.32933888 -0.019470597 -0.07626397 -0.10097335 -0.11958564 0.46261078 0.5883041 0.37281507
0.0039788447 -0.08871028 0.0020132067 -0.2229691 -0.02313449 0.33213085 0.22371738 0.17157754
-0.19180238 -0.27284336 0.0069535947 -0.17577554 -0.13255604 -0.13749927 0.11408815 1.1193966
0.9460875 -0.020478265 -0.11016761 -0.054053586 -0.0331141 -0.5189449 0.8142781 -0.26797822
-0.15316588 0.01603567 0.023856817 0.39840585 0.13154596 -0.07949106 -0.12011825 -0.106040545
-0.10683793 0.37152192 -0.33028793 0.56301224 -0.11229185 -0.14245789 -0.1449963 -0.15526105
-0.20192999 0.03864552 0.7905791 -0.007768456 -0.036769327 -0.14335094 0.49522033 -0.12245469
-0.036557563 -0.09493321 0.22361615 -0.49134272 -0.4514577 -0.1056917 0.5651376 -0.02033765
-0.08752206 -0.111848585 -0.04965878 0.4441487 -0.18001871 0.7719392 -0.15813679 -0.082554504
-0.09379608 -0.45108318 -0.2542356 -0.7789704 -0.07259427 0.026655832 -0.7382174 -0.36285657
-0.15027426 1.3263533 -0.11994683 -0.14778298 -0.13261504 0.29152808 -0.44579273 -0.16839398
0.43248892 0.10661947 -0.1113552 -0.049863517 -0.17659543 0.45168677 0.2257148 -0.019631697
-0.0624682 -0.1319217 -0.10677326 -0.26757014 -0.067647055 1.0474151 -0.12620538 0.46227592

fc3.weight f4 [1, 128]
00000000: 36ad 12bd a731 f4bc 5120 19ba a2af 273d
00000010: 9a42 abba 5147 a8bc d5fb 053b e048 d2bc
00000020: a754 62bc 7927 c3bb 663e bbbc 6d33 f1bc
00000030: f0ae 933c 4406 763c 219d 083b a516 033c
00000040: 5543 ccbc 58a5 063d 811e eabb 110b 523c
00000050: d00e 88bc 1f78 97bc c6d3 2fbd e467 a53c
00000060: 90e3 e3bc b2a2 4e3c 9666 b9bb c244 dbbc
00000070: 0d9d 33bc f7e9 0ebd 499c 7c3c b143 94bc
00000080: 756f ecbc db27 96bb 4fad 973a 3eff 57bd
00000090: b1d3 903c 195d d53c 07ec 6cbc e484 e5bc
000000a0: 58db e9bc 425c a1bc 7c5b 87bc de8e afbc
000000b0: cbe4 c4bc 0906 2cbd 4068 a7bc 0cc9 c43c
000000c0: 63a6 dd3c be5c 53bc 6ff4 d7bc 9a3f 7a3b
000000d0: 1d70 08bd 9f4e eabc 8f64 ab3c 3c67 eebc
000000e0: 394b e6bc d06b 0abd 9e1e b0bc 9324 a93c
000000f0: b174 a8bc e00d eabb 130a 46bc c903 1cbd
00000100: 75b6 f4bc f726 ce3c 5e8d 07bd af54 57bc
00000110: 15b5 9a3c 4414 08bc 2e96 d4bc ed30 0c3c
00000120: 438b 8dbc 3e70 183c cda5 a1bc 9743 c13c
00000130: b5f7 6fbc 446b febc d16e 76bc 942c d53b
00000140: a266 f1bc 72c0 5c3c 0ea2 aabc 9c43 25bd
00000150: 1963 01bd 4ecc 9eba 0d96 81bc 8bb2 c0bc
00000160: 0fd3 603c 9e85 15bd b8c1 03bd 8397 c3bc
00000170: 9cb0 6ebc 6357 d7bc 9851 58bb d1e4 ac3c
00000180: 7f13 f8bb f172 7ebc b1b5 edbc 979b a3bc
00000190: 6c31 dbbb 1382 b7bc 4948 52bd 745c 01bd
000001a0: 40b6 af3b bfe9 b43c e327 38bc d98a b0bc
000001b0: 9c99 8c3c 01ac 5fbc 0d2a 18bd 9046 02bc
000001c0: abaa 67bc 0fb9 88bc 2729 7ebc 6e8b 963b
000001d0: 517e 9dbc bba8 b7bc 14f1 d5bc 31f9 c53b
000001e0: 9a00 a2bc c10c a6bc df6f 7dbc 3ee5 ddbc
000001f0: 600e 90bc 4801 8d3c c6e8 783b 3d9c 95bc
-0.035809718 -0.029808832 -0.00058413023 0.04093898 -0.0013066113 -0.020541819 0.0020444293 -0.025669515
-0.013814128 -0.0059556332 -0.022856902 -0.029443467 0.018027753 0.015016142 0.002084561 0.008001004
-0.02493445 0.032872528 -0.0071447496 0.012820021 -0.016608626 -0.018489895 -0.042926572 0.02019114
-0.027818471 0.012612032 -0.005657981 -0.026766185 -0.010962737 -0.034891095 0.015418121 -0.018098684
-0.02886174 -0.004582388 0.0011572036 -0.052733652 0.017679067 0.026045369 -0.01446057 -0.028017469
-0.028546974 -0.019697312 -0.016523115 -0.02143043 -0.024034878 -0.041997943 -0.020435452 0.024021648
0.027056878 -0.012900529 -0.026361672 0.0038184882 -0.033310045 -0.028601943 0.020921974 -0.02910196
-0.02811204 -0.033794224 -0.021498974 0.020647323 -0.020563455 -0.0071427673 -0.012087363 -0.038089547
-0.029872159 0.025165064 -0.033093803 -0.013142749 0.018885175 -0.008305613 -0.025950518 0.008556587
-0.01727832 0.009304104 -0.01973238 0.0235918 -0.01464646 -0.031057008 -0.015041069 0.0065055583
-0.029467884 0.013473617 -0.020829227 -0.04034768 -0.031588648 -0.0012115331 -0.01581862 -0.023522636
0.013722195 -0.03650438 -0.032167166 -0.023875957 -0.014568474 -0.026286786 -0.0033007618 0.021105202
-0.0075706835 -0.015530334 -0.029017301 -0.019971652 -0.006689241 -0.022400891 -0.051338468 -0.03158231
0.005362302 0.022084115 -0.0112399785 -0.021550583 0.01716309 -0.013651849 -0.037149478 -0.007951394
-0.0141398115 -0.016689805 -0.015512741 0.004594258 -0.019225271 -0.022419324 -0.026115932 0.006041669
-0.019775677 -0.020269753 -0.015468567 -0.02708685 -0.01758498 0.017212525 0.003798054 -0.018262977
