Policy_Based_Methods_Continuous_Control/checkpoint_actor.pth (torch, 87383 bytes, 6 tensors)

fc1.weight f4 [128, 33]
0.33142227 0.1957137 0.07210321 -0.6658754 -2.158199 1.6038736 1.5935475 -0.14477162
-0.35274357 0.03680103 -0.10540107 0.0014710925 0.3481144 0.035458483 0.3286364 0.3605854
-1.9280431 1.3845848 1.7595983 -0.9874502 0.20741205 0.4235746 0.22698207 0.29033044
0.09984307 0.28075153 -0.12704359 0.3227283 -0.65372187 -0.011835538 -0.23794451 -0.054728672
-0.20218804 -0.35085076 0.34766155 -0.6960531 -0.7916743 -1.4802623 -0.68601626 -0.41985145
-0.4704971 0.06950738 -0.07736722 -0.021558173 0.015499737 -0.011841828 0.15328997 -0.5911342
0.94957936 -0.55145717 0.168515 0.04571875 -0.42097104 -0.036909338 0.044235796 -0.0072029317
0.2531807 -0.12885313 0.2570111 0.3253268 0.9377794 -0.4830962 -0.06032259 -0.9283137
-0.034492347 1.0538393 0.5936318 -0.70575935 0.37819925 -0.38755095 -1.2195369 0.4347289
-1.5098771 -0.013080995 0.0369317 -0.10885019 0.09590952 -0.06571894 0.08610881 -0.6570838
0.6045491 0.18607605 -0.27180845 1.2927214 -1.1808085 -0.5908877 -0.020394014 0.17238007
0.039528403 0.035123806 0.22358632 0.3356373 0.75227505 0.25122827 -0.008753531 -0.062163703
-0.24403279 0.08344149 -0.08899291 0.34806398 0.85271204 0.64385295 0.8486338 1.422458
0.101079084 0.12537919 0.21027216 -0.34941894 0.031550054 0.018914133 0.0814205 0.008693895
-0.12446339 -0.652123 -0.93461406 0.15051639 -0.11641761 -0.6634104 -0.08436582 0.08475252
0.4202846 0.12627833 0.16120858 -0.15089065 -0.39960617 0.07994235 0.42388728 0.35629147
-0.010008022 -0.35756877 0.002295792 -0.74103147 -0.8916307 -0.25143188 0.59573025 0.025463833
-0.6171795 0.7448703 -0.7711553 0.036446862 0.2304041 -0.2371697 -0.0030905164 0.019547071
0.002522775 1.1484761 0.15968986 -0.25073314 1.2596406 0.2318321 -0.06574288 -0.47263232
-0.21258198 0.18878277 -0.013886642 0.43538994 -0.0070174313 0.1388361 -0.5065864 0.20311466
0.20216027 0.072098576 -0.08379974 -0.0024613366 -0.774896 -0.85397327 0.1500543 -0.047588952
-0.43824846 0.43500158 1.3313262 -1.1249733 0.1191988 0.5593677 0.31072065 -0.06947988
0.089807555 -0.004734675 1.4498727 -0.19296557 0.022536177 -1.3951176 -0.38714123 -0.60997546
0.28956455 0.031920236 -0.10083438 -0.18080479 0.0517026 -0.06825518 -0.11403593 -0.6751266
0.12019208 0.19713354 -0.043028023 -0.10722628 -0.030286178 0.44203848 0.23510683 0.75196886
0.5822662 -0.54057837 -0.9607986 -0.6703092 -1.8459601 -0.17652367 0.5661421 0.57286584
0.10302662 -0.12078965 -0.16052617 0.30461317 -0.13761401 -0.2646321 0.38342634 1.4366887
-0.6578429 0.18775947 -0.076874286 0.18960622 0.24355434 -0.06991033 -0.03252608 -0.0080244085
-0.30419424 0.48938283 -0.48917955 -0.022760838 -0.49425745 -0.014444672 1.2752349 0.7223971
-0.32869685 0.36601517 0.71221524 -0.6395694 1.0943758 -0.6692595 -0.19206603 -0.7168442
-0.06998467 0.11512947 0.016617902 -0.07868148 0.43661636 0.43778035 0.18658751 -0.34024253
-0.06574255 -0.9939461 0.33783856 -0.036464717 -0.08358047 0.15801713 -0.23969246 0.21838762
00000000: 2eb0 a93e 2c69 483e d9aa 933d cf76 2abf
00000010: ef1f 0ac0 bb4b cd3f 5df9 cb3f 033f 14be
00000020: ce9a b4be adbc 163d 84dc d7bd acd1 c03a
00000030: 0d3c b23e ea3c 113d 0843 a83e a69e b83e
00000040: 1eca f6bf 133a b13f 843a e13f 89c9 7cbf
00000050: d363 543e c5de d83e fd6d 683e 31a6 943e
00000060: 867a cc3d aabe 8f3e b717 02be a53c a53e
00000070: 515a 27bf d8e9 41bc baa7 73be 2c2b 60bd
00000080: 620a 4fbe b6a2 b3be b200 b23e 8930 32bf
00000090: 2bab 4abf 3c79 bdbf c39e 2fbf c5f6 d6be
000000a0: ffe4 f0be e359 8e3d b472 9ebd c49a b0bc
000000b0: 9cf2 7d3c 3a04 42bc 0cf8 1c3e 9254 17bf
000000c0: a217 733f 4c2c 0dbf 328f 2c3e 9643 3b3d
000000d0: 8489 d7be 3f2e 17bd 9830 353d 9206 ecbb
000000e0: e7a0 813e 13f2 03be f596 833e 3c91 a63e
000000f0: 5012 703f 6358 f7be d214 77bd f7a5 6dbf
00000100: d947 0dbd 35e4 863f 41f8 173f a5ac 34bf
00000110: 55a3 c13e 146d c6be c919 9cbf c994 de3e
00000120: a743 c1bf ab51 56bc b245 173d d9ec debd
00000130: 366c c43d a797 86bd d159 b03d a536 28bf
00000140: bbc3 1a3f b88a 3e3e 7a2a 8bbe e577 a53f
00000150: bc24 97bf 6b44 17bf 5911 a7bc 6784 303e
00000160: 89e8 213d fbdd 0f3d d0f3 643e a7d8 ab3e
00000170: 1995 403f fea0 803e f86a 0fbc 5e9f 7ebd
00000180: bbe3 79be 5fe3 aa3d ea41 b6bd 7135 b23e
00000190: 564b 5a3f 8cd3 243f 1140 593f 1b13 b63f
000001a0: 8d02 cf3d 6763 003e 9651 573e 0ae7 b2be
000001b0: a13a 013d d0f1 9a3c cbbf a63d d770 0e3c
000001c0: a9e6 febd 88f1 26bf de42 6fbf f820 1a3e
000001d0: 5b6c eebd 44d5 29bf fdc7 acbd bb92 ad3d
000001e0: 8b2f d73e 1b4f 013e dd13 253e 1483 1abe
000001f0: 2e99 ccbe d1b8 a33d c107 d93e d66b b63e
00000200: b0f8 23bc 4113 b7be 0075 163b 3db4 3dbf
00000210: e941 64bf aebb 80be c781 183f 8799 d03c
00000220: 7aff 1dbf d2af 3e3f 6f6a 45bf 4e49 153d
00000230: 0def 6b3e 9ddc 72be 438a 4abb 2e21 a03c
00000240: 2455 253b 4401 933f bd85 233e 1860 80be
00000250: e73b a13f 6565 6d3e 34a4 86bd ddfc f1be
00000260: 17af 59be 4550 413e cc84 63bc 6eeb de3e
00000270: 7bf2 e5bb 0d2b 0e3e a5af 01bf 4afd 4f3e
00000280: 1a03 4f3e 6ba8 933d 339f abbd 604e 21bb
00000290: 965f 46bf fe9d 5abf d6a7 193e a2ec 42bd
000002a0: 1a62 e0be 87b8 de3e e668 aa3f 20ff 8fbf
000002b0: 801e f43d b932 0f3f c716 9f3e 784b 8ebd
000002c0: 06ed b73d 5525 9bbb 6e95 b93f c498 45be
000002d0: ca9d b83c 3793 b2bf 6037 c6be 5a27 1cbf
000002e0: ce41 943e cbbe 023d 4182 cebd e424 39be
000002f0: 1bc6 533d 5fc9 8bbd ab8b e9bd 19d5 2cbf
00000300: 4427 f63d 60dd 493e 273e 30bd 7499 dbbd
00000310: b81a f8bc de52 e23e d8bf 703e 0881 403f
00000320: 660f 153f 5863 0abf e6f6 75bf 6299 2bbf
00000330: 6c48 ecbf 9fc2 34be b0ee 103f 56a7 123f
00000340: 9fff d23d 9060 f7bd f960 24be 42f6 9b3e
00000350: b0ea 0cbe dc7d 87be 7550 c43e 6ae5 b73f
00000360: 6468 28bf 0544 403e 4470 9dbd 2228 423e
00000370: 4f66 793e 262d 8fbd 113a 05bd cf78 03bc
00000380: 59bf 9bbe 6390 fa3e be75 fabe f074 babc
00000390: 500f fdbe 58a9 6cbc e63a a33f 04ef 383f
000003a0: f44a a8be 5766 bb3e bd53 363f d2ba 23bf
000003b0: 8214 8c3f 9754 2bbf f5ac 44be 1a83 37bf
000003c0: 1f54 8fbd 00c9 eb3d 4422 883c c123 a1bd
000003d0: 2e8c df3e bf24 e03e cc10 3f3e 4534 aebe
000003e0: 08a4 86bd 4073 7ebf 2df9 ac3e 075c 15bd
000003f0: 3d2c abbd 3ecf 213e f171 75be 01a1 5f3e

fc1.bias f4 [128]
-0.4155623 -1.0280049 -0.12458998 -0.3620837 -0.1316011 -0.32069507 -0.34100446 -0.5304906
-0.29867432 -0.3390359 -0.6149137 0.048642192 -0.55638146 -0.75771487 -0.737118 -0.90264046
-0.023641424 -0.8279435 -0.39856538 0.0059189764 -0.18180606 -0.5879228 -0.3327606 -0.78139174
-0.15451646 -0.36345026 -0.25709298 -0.55507195 -0.23394655 -0.19909167 -0.03195805 -0.45945472
-0.39308953 -0.32558787 -0.27556413 -0.31562454 -0.87360626 -0.05083419 -0.66355133 0.06345921
0.06342346 -0.39550808 -0.63857514 -0.27563715 -1.0429201 -0.4825156 -0.77925426 -0.13949221
-0.4910511 -0.6148721 -0.40711805 -0.19082013 -0.4385972 -0.39099267 -0.8331732 -0.25502545
-0.5458272 -0.35419285 -0.26990393 -0.5550844 -0.0067511234 -0.9771573 -0.21777771 -0.5974127
-0.37522045 -0.23280522 -0.63654405 -0.4578179 -0.42438167 -0.60430014 -0.8186082 -0.676964
-0.36497954 -0.010246262 -0.92835164 -0.4625183 -0.27839002 -0.30763578 -0.08425102 -0.82387275
-0.4959918 -0.1042311 -0.27543756 -0.49192038 -0.35977873 -0.59351397 -0.63166714 -0.46665233
-0.5321763 -0.4963905 -0.5487126 -0.13690867 -1.0185727 -0.48128727 -0.4476816 -0.8278391
-0.07675562 -0.3224862 -1.0014588 -0.08634586 -0.4002247 -0.32702088 -0.8519725 -0.5682662
-0.725711 -0.43724054 -0.4442708 -0.33927783 -0.012186931 -0.7683526 -0.634395 -0.4383812
-0.1058469 -0.03767743 -0.7778544 -0.053269137 -0.32596487 -0.28658646 -0.74798465 -0.3196444
-0.5874924 -0.25918472 -0.5505254 -0.28935415 -0.36144957 -1.4975288 -0.1677081 -0.4778174
00000000: 95c4 d4be aa95 83bf 0829 ffbd 0963 b9be
00000010: 70c2 06be 2532 a4be 2398 aebe 3bce 07bf
00000020: d7eb 98be 1d96 adbe fc6a 1dbf 093d 473d
00000030: 046f 0ebf 9af9 41bf c4b3 3cbf 7213 67bf
00000040: a9ab c1bc 1bf4 53bf c310 ccbe f9f3 c13b
00000050: 5e2b 3abe 1c82 16bf 995f aabe 4a09 48bf
00000060: 9039 1ebe 2716 babe b1a1 83be 3219 0ebf
00000070: af8f 6fbe b0de 4bbe 72e6 02bd a63d ebbe
00000080: 0843 c9be 74b3 a6be be16 8dbe 8a99 a1be
00000090: a9a4 5fbf 8337 50bd 80de 29bf e7f6 813d
000000a0: 29e4 813d 0980 cabe a979 23bf 5020 8dbe
000000b0: 687e 85bf 490c f7be 357d 47bf 0cd7 0ebe
000000c0: 0d6b fbbe 4268 1dbf c771 d0be 5a66 43be
000000d0: d08f e0be 3130 c8be d74a 55bf b292 82be
000000e0: 55bb 0bbf c458 b5be d930 8abe 031a 0ebf
000000f0: 8738 ddbb fb26 7abf 1f01 5fbe 0af0 18bf
00000100: e51c c0be 7e64 6ebe 8df4 22bf 1c67 eabe
00000110: 8e48 d9be 6ab3 1abf 4f90 51bf 834d 2dbf
00000120: 99de babe f0df 27bc 74a8 6dbf 33cf ecbe
00000130: 2389 8ebe 7082 9dbe cc8b acbd 53e9 52bf
00000140: a3f2 fdbe 1d77 d5bd 2706 8dbe fddc fbbe
00000150: eb34 b8be 88f0 17bf f0b4 21bf 0eed eebe
00000160: b53c 08bf e526 febe 6e78 0cbf c931 0cbe
00000170: 9760 82bf 496b f6be 8636 e5be 43ed 53bf
00000180: 0d32 9dbd e91c a5be cd2f 80bf 19d6 b0bd
00000190: 40ea ccbe 486f a7be df1a 5abf e579 11bf
000001a0: 32c8 39bf fedd dfbe 7677 e3be d3b5 adbe
000001b0: b2ab 47bc c2b2 44bf b667 22bf 8073 e0be
000001c0: 42c6 d8bd a653 1abd 7721 47bf bd30 5abd
000001d0: dee4 a6be 76bb 92be ec7b 3fbf 6ea8 a3be
000001e0: e765 16bf dcb3 84be 3cef 0cbf 3a26 94be
000001f0: eb0f b9be 06af bfbf acbb 2bbe 7ba4 f4be

fc2.weight f4 [128, 128]
-0.50383925 0.6279917 0.26520893 -0.4138808 0.28169534 -0.13195643 -0.87433624 0.13111173
0.087790795 -0.49825916 0.20647077 0.17983663 0.33431292 -0.19068177 0.20868114 -0.2814084
-1.2623236 -0.72413486 0.055373825 -0.86157966 0.17087364 0.76840496 -0.3446801 -0.29712296
0.33526185 0.32652554 -0.058989186 -0.31245425 0.85998887 -0.4067383 -0.2871475 -1.4724149
0.22907007 -0.12982467 0.8044554 0.5362361 -0.5525974 -0.069374055 0.24376331 -0.7725855
-0.37437052 0.40465838 -0.7347385 0.12417222 -0.121723965 0.3427121 -0.64245665 0.11943404
0.47601423 0.22346342 0.61954194 -1.0872614 -0.7550434 -0.1434457 0.18967983 0.3019458
0.1385562 0.7222068 0.230644 0.4605295 0.6241673 -1.6405159 -0.83719254 1.076207
0.45771924 -0.6081148 -0.21769325 -0.22541635 0.25695202 0.4338171 0.67644984 -0.35286796
-0.8219999 -0.06105456 -0.12780672 0.06633516 -0.53418005 -0.14310203 0.35864076 -0.62320834
0.02489303 -0.31427285 0.4274132 -0.101218864 -0.7049604 -0.39850277 0.14763047 0.8667548
0.6543442 0.12783639 -0.24096896 -1.0742275 -0.30932862 -0.017584737 -0.10517503 -0.11419295
-0.17340852 0.33025092 -0.30556002 -0.6192751 -0.10997213 -0.27092522 -0.051316164 -0.47564363
0.8282608 -1.3468751 0.16948201 -0.15112327 -0.41614154 0.06034597 0.101092 -0.61958086
-0.41187093 -0.806767 -0.08187623 0.48784876 -1.0160334 -1.3603958 0.20482755 -0.104139544
-0.20853052 -0.29050598 -0.22977738 0.07726483 0.15069194 0.27172905 0.28472733 -0.4500577
0.38596973 -0.65791106 -0.30741233 -0.12281622 0.4894259 -1.3489513 0.21730515 -0.39908707
-0.21106741 -0.62621254 -0.023823583 -0.2834914 -0.10281727 -0.90620404 0.16054662 -0.065458395
-2.138259 0.1203915 -0.49416372 -0.028390184 0.28892857 -0.3347937 0.25540173 -0.48208433
0.109154865 0.026154459 0.63618445 -0.39518186 0.0063077393 0.0843037 -0.4840249 0.059230577
0.3221783 0.28808483 -0.034842808 0.29420727 0.07919091 0.05048365 -1.053461 -0.6054436
-1.592291 0.89984304 -0.31947082 -0.24212585 0.1167965 0.40997344 -0.75798935 -0.31968084
0.30949122 -0.21356435 0.0947537 -1.2172813 -0.5938412 -0.2703586 -0.5811989 -0.34204865
-0.38985234 0.6658719 -0.30269822 0.16217169 0.63799024 -0.3154625 -0.5897461 0.43213162
-0.23757519 0.47892925 0.4033189 0.16415262 0.705248 0.42451757 0.31947747 0.16459525
0.6163919 -0.97907627 -1.0199437 -0.42993432 0.38871303 -0.045893587 0.29402488 -0.4326904
0.05444194 -0.3179791 0.48447934 -0.18400325 0.07849992 -0.9182988 0.9390709 -0.3537781
0.74907625 0.20694442 0.46135768 0.09300389 -0.47465652 -1.5084101 0.18174008 1.0751153
-0.07944469 0.122246414 -0.32355514 0.28634027 -0.04630359 0.17135781 0.61050844 0.41868028
0.5877069 0.7058182 -0.13999753 -0.8534103 0.35098717 -0.3968511 -0.6732613 -0.14015017
-0.20384702 -0.029700499 0.59568465 -0.0999978 0.55544853 0.20502803 0.033926394 -0.5536994
-0.8636843 -0.778105 0.21776848 -0.79469806 0.3085014 1.0173712 0.2995237 -0.43354672
00000000: 9cfb 00bf 10c4 203f 77c9 873e 2fe8 d3be
00000010: 5f3a 903e 961f 07be 80d4 5fbf 2742 063e
00000020: a9cb b33d d31b ffbe 136d 533e 1827 383e
00000030: 102b ab3e 1542 43be 82b0 553e c314 90be
00000040: d293 a1bf e760 39bf aacf 623d 7c90 5cbf
00000050: 80f9 2e3e 30b6 443f e979 b0be 8020 98be
00000060: 71a7 ab3e 5b2e a73e a59e 71bd 01fa 9fbe
00000070: 3b28 5c3f 0140 d0be ff04 93be 1778 bcbf
00000080: 5891 6a3e c2f0 04be caf0 4d3f c546 093f
00000090: 0677 0dbf fc13 8ebd 179d 793e 2ac8 45bf
000000a0: 7ead bfbe 622f cf3e d317 3cbf 014e fe3d
000000b0: 6a4a f9bd f677 af3e 0a78 24bf d599 f43d
000000c0: 23b8 f33e 98d3 643e 4d9a 1e3f 622b 8bbf
000000d0: 864a 41bf 6ee3 12be 6e3b 423e a498 9a3e
000000e0: ade1 0d3e 8be2 383f f12d 6c3e 86ca eb3e
000000f0: 6ec9 1f3f 6dfc d1bf 4052 56bf 27c1 893f
00000100: 2d5a ea3e 69ad 1bbf fbea 5ebe 8bd3 66be
00000110: 378f 833e 461d de3e d12b 2d3f 1cab b4be
00000120: 966e 52bf 5914 7abd c4df 02be bada 873d
00000130: 06c0 08bf 5789 12be c39f b73e 958a 1fbf
00000140: 78ec cb3c 5fe8 a0be e7d5 da3e d64b cfbd
00000150: 4978 34bf 8e08 ccbe 712c 173e a4e3 5d3f
00000160: 1a83 273f 8be7 023e 91c0 76be 4980 89bf
00000170: 5260 9ebe de0d 90bc 0266 d7bd fedd e9bd
00000180: 0192 31be a616 a93e 5d72 9cbe d088 1ebf
00000190: 1139 e1bd b6b6 8abe e630 52bd 9087 f3be
000001a0: e608 543f 6766 acbf b18c 2d3e 0fc0 1abe
000001b0: 8110 d5be 562d 773d 5309 cf3d da9c 1ebf
000001c0: bfe0 d2be 4888 4ebf baae a7bd 50c7 f93e
000001d0: 620d 82bf 7321 aebf 50be 513e 1d47 d5bd
000001e0: 0689 55be 33bd 94be c34a 6bbe 063d 9e3d
000001f0: fd4e 1a3e 1220 8b3e c8c7 913e f66d e6be
00000200: d39d c53e dc6c 28bf 2665 9dbe 1287 fbbd
00000210: 0896 fa3e 70aa acbf 3e85 5e3e 2455 ccbe
00000220: 0e22 58be 774f 20bf ad29 c3bc c925 91be
00000230: dc91 d2bd fdfc 67bf 5566 243e 0d0f 86bd
00000240: 3cd9 08c0 d28f f63d 0703 fdbe 8892 e8bc
00000250: 72ee 933e 146a abbe 04c4 823e c2d3 f6be
00000260: 968c df3d e041 d63c fcdc 223f 4755 cabe
00000270: 27b1 ce3b 6ba7 ac3d 1dd2 f7be c39b 723d
00000280: 8ef4 a43e db7f 933e 55b7 0ebd 56a2 963e
00000290: d82e a23d f2c7 4e3d cfd7 86bf 5afe 1abf
000002a0: 31d0 cbbf 1d5c 663f ae91 a3be d7ef 77be
000002b0: 0133 ef3d 0ae8 d13e 970b 42bf 35ad a3be
000002c0: a275 9e3e 9db0 5abe 3a0e c23d e0cf 9bbf
000002d0: fa05 18bf 716c 8abe 73c9 14bf 0021 afbe
000002e0: ba9a c7be 9576 2a3f 43fb 9abe 5610 263e
000002f0: 5453 233f 4d84 a1be 9af9 16bf 5b40 dd3e
00000300: e946 73be 3736 f53e d17f ce3e a017 283e
00000310: 228b 343f 5e5a d93e 8d92 a33e a88b 283e
00000320: dccb 1d3f bea4 7abf 848d 82bf 5a20 dcbe
00000330: 6505 c73e eafa 3bbd 6e8a 963e 9989 ddbe
00000340: 83fe 5e3d 28ce a2be ad0d f83e 596b 3cbe
00000350: 91c4 a03d a115 6bbf f366 703f 6722 b5be
00000360: 76c3 3f3f 3de9 533e 1337 ec3e d378 be3d
00000370: 2e06 f3be 9513 c1bf 121a 3a3e 619d 893f
00000380: e6b3 a2bd 545c fa3d 05a9 a5be 319b 923e
00000390: d5a8 3dbd 6c78 2f3e 484a 1c3f 435d d63e
000003a0: f673 163f 80b0 343f 835b 0fbe 1979 5abf
000003b0: 97b4 b33e 1130 cbbe da5a 2cbf 8783 0fbe
000003c0: 46bd 50be 764e f3bc ca7e 183f a6cb ccbd
000003d0: e031 0e3f def2 513e 67f6 0a3d 3ebf 0dbf
000003e0: 6a1a 5dbf e431 47bf b3fe 5e3e 5571 4bbf
000003f0: e5f3 9d3e 3839 823f 2c5b 993e d6f9 ddbe

fc2.bias f4 [128]
-0.37534606 -0.55493444 -0.3953309 0.08616556 -0.4963132 -0.37175536 -0.42394662 -0.8136876
0.058480155 -0.2861924 -0.64752847 -0.3631124 -0.030239223 -0.5351716 -0.40146688 -0.9127806
-0.30996558 0.02767237 -0.90290034 0.072482005 -0.8467643 0.10572795 -0.33487016 -0.23270226
-0.17197321 -0.37083402 -0.29158303 0.03736728 -0.7168036 -0.29319942 -0.3770348 0.7079679
0.39844048 -0.66202337 0.08258445 -0.311046 -0.5396878 -0.4107264 7.076275e-05 -0.5267719
-0.1380801 -0.4827647 -0.7041366 -0.5285791 -0.61910224 -0.02774174 -0.68077374 -0.34572646
0.085333005 -0.416915 -1.0108141 -0.67928237 -0.49401078 -0.45330274 0.10777537 -0.93729514
-0.4840199 -0.6372897 -0.34949413 -0.023987966 -0.87255085 -0.22712992 0.03909302 -0.30388278
-0.25377792 -0.811003 -0.49046218 -0.36657375 0.12455463 0.16317266 0.03307785 0.060655862
-0.47249743 -0.59585834 -0.059082005 -0.27098876 -0.22356959 -0.35050687 -0.21258368 -0.41178113
-0.2767325 -0.10828293 -0.25247666 -0.68533903 0.3281929 -0.62006617 -0.8943268 -0.13167147
-0.027651884 -0.5094159 -0.49203244 -0.37242094 -0.69003105 0.09347582 0.053886976 -0.4382174
0.008914885 0.46921933 -0.4225392 -0.25563076 -0.6501321 -0.12338256 -0.80724275 -0.08609213
-0.16165684 -0.576624 0.010806331 -0.15728281 0.38129973 -0.32259965 -0.7119803 -0.32798648
-0.8761124 -0.14257653 -0.18148324 -0.6701753 -0.61773294 -0.4345014 -0.158717 -0.19102596
-0.17487758 -0.3201346 -0.65105677 -0.42246634 0.049825307 -0.22389194 -0.21618201 0.08301146
00000000: 5c2d c0be 2f10 0ebf d068 cabe 9277 b03d
00000010: c41c febe b856 bebe 880f d9be d54d 50bf
00000020: e388 6f3d cf87 92be 6dc4 25bf dee9 b9be
00000030: 3fb8 f7bc 0201 09bf 118d cdbe fdab 69bf
00000040: cfb3 9ebe 2bb1 e23c 7a24 67bf 7271 943d
00000050: 8cc5 58bf e587 d83d 1a74 abbe 8049 6ebe
00000060: bf19 30be f5dd bdbe 5f4a 95be 6f0e 193d
00000070: 7180 37bf 3c1e 96be b50a c1be 623d 353f
00000080: 6400 cc3e 5d7a 29bf 0922 a93d 6c41 9fbe
00000090: fb28 0abf bb4a d2be 7666 9438 86da 06bf
000000a0: df64 0dbe ef2c f7be 4c42 34bf f650 07bf
000000b0: 7c7d 1ebf a542 e3bc 3047 2ebf 0f03 b1be
000000c0: 12c3 ae3d e275 d5be 5b62 81bf 73e5 2dbf
000000d0: fbee fcbe 4c17 e8be 55b9 dc3d 93f2 6fbf
000000e0: 75d1 f7be 6b25 23bf e5f0 b2be 6982 c4bc
000000f0: 7e5f 5fbf bf94 68be 0120 203d 8696 9bbe
00000100: 2eef 81be e59d 4fbf dc1d fbbe 8eaf bbbe
00000110: 7f16 ff3d bc16 273e a47c 073d 4872 783d
00000120: 2feb f1be 2c8a 18bf f9ff 71bd 0abf 8abe
00000130: 6def 64be a375 b3be 89af 59be fad4 d2be
00000140: e2af 8dbe 71c3 ddbd 9f44 81be 6172 2fbf
00000150: e608 a83e a8bc 1ebf 9af2 64bf e3d4 06be
00000160: 3486 e2bc 1569 02bf adeb fbbe f5ad bebe
00000170: e0a5 30bf 4070 bf3d 97b8 5c3d 085e e0be
00000180: bd0f 123c 843d f03e 0f57 d8be 09e2 82be
00000190: 0f6f 26bf ffaf fcbd 76a7 4ebf 1251 b0bd
000001a0: 5f89 25be a19d 13bf 0a0d 313c bf0e 21be
000001b0: b839 c33e c82b a5be 5744 36bf d8ed a7be
000001c0: e748 60bf 95ff 11be bed6 39be 9c90 2bbf
000001d0: bf23 1ebf f876 debe b686 22be 4f9c 43be
000001e0: 1c13 33be afe8 a3be a8ab 26bf 824d d8be
000001f0: 9f15 4c3d ee43 65be d15e 5dbe ea01 aa3d

fc3.weight f4 [4, 128]
0.30393103 -0.010229804 0.3524879 -0.046620842 -0.27084953 -0.6347623 0.24079143 0.20827316
0.08003182 -0.27767473 -0.121475 -0.27899387 0.456688 -0.4315262 -0.3894799 -0.06703492
-0.27034947 0.27451068 0.47387314 -0.5205395 0.32574192 0.029548522 0.016183443 0.33178496
0.40362144 0.54883295 0.36869812 -0.21427603 1.1721764 0.44110972 -0.601453 -0.19827127
0.09916921 0.21080373 -0.1582795 0.69232756 -0.096392356 -1.0715306 0.30105525 0.16997539
0.5474492 0.9125372 0.06694405 -0.22847615 0.116908856 0.08044899 0.13662083 0.51638806
-0.090797774 -0.31897143 0.23767143 0.42396432 -0.52017474 -0.3001047 -0.19673567 -0.04562199
-0.27952516 -0.41471106 0.07805778 0.5540126 0.22570685 -0.18465304 -0.1057731 0.045249727
-0.23865342 0.27537835 0.16403566 -0.23576002 -0.50183284 0.07988448 -0.025937468 -0.072687864
-0.14400855 0.7734115 0.3776643 -0.27885115 0.1805583 -0.3643858 0.014574788 -0.32939515
0.1682545 -0.31504858 -0.19632241 0.37091953 -0.21700062 -0.37628454 -0.66542554 0.33481184
-0.86505604 -0.099893324 0.12013555 -0.42646304 0.6285737 -0.14199369 -0.5884805 -0.12264694
-0.09348401 0.49858958 0.30666572 0.51733613 0.3091321 0.19434097 -0.88252753 -0.1749906
0.12000102 0.14464161 -0.29201397 -0.005068319 0.5978537 1.2367538 -0.60480314 -0.008819162
0.6547954 0.17749773 -0.35176113 0.097122766 0.25393924 0.06855007 -0.012750047 -0.081015065
0.009121094 -0.39723614 0.70817685 -0.075193584 0.020995483 0.13143106 -0.125417 0.32993686
-0.40277627 -0.9554934 0.23161101 -0.08338286 0.23654647 0.69630176 0.10826973 -0.43392804
0.41396397 0.87971723 -0.26867267 -0.1580078 -0.3270373 -0.4293752 -0.00983591 0.46466687
0.63015723 -0.6860881 -0.11087684 0.03088414 -0.091430016 0.914518 -1.5590993 0.27391163
0.15343992 -0.8808183 -0.25944495 -0.02148073 0.3244422 0.053363107 0.25932667 0.5974238
1.187909 -1.0708013 0.31052676 0.006839872 -0.2801914 0.49998146 -0.54094243 -0.20110811
0.8266979 -0.24178253 -0.18421058 0.87748 -0.43657592 0.59113324 -0.8782465 -0.35830256
-0.34834957 -1.2154832 -0.5552433 0.3562987 -0.15247466 0.22523746 -0.40531918 0.10564124
-0.43695328 -0.15368465 -0.73909825 0.107826315 0.23996377 -0.06965546 -0.4128022 0.6391986
0.311167 0.40914837 -0.23129953 -0.20944041 -0.031305414 1.105376 -0.736455 -0.8216472
0.650299 1.0333309 0.15248246 -1.372587 -0.98516333 -1.1114098 -0.72480386 0.79566664
0.3800909 -0.51082945 0.1397133 0.82480294 0.15425926 -0.30518672 -0.32751483 -0.072247334
0.2715269 0.16146997 0.16024075 -0.16200222 -0.9141304 -0.027450489 -0.1174099 -0.011368563
0.41198787 0.22023189 -0.89656377 0.74591386 -0.3979537 -0.40472752 -1.2204264 -0.5110128
1.1422931 1.0668865 -0.21468939 0.40007126 -0.4914513 0.39043313 -0.405147 0.123538375
0.43325272 0.7651264 -0.3135211 0.3906637 0.20684445 0.14103727 0.16752753 0.2829046
-0.39574727 -0.49840447 0.098603845 0.07036942 -0.5579534 0.21942793 0.24454334 0.44352597
00000000: d99c 9b3e e89a 27bc 4b79 b43e 7ff5 3ebd
00000010: caac 8abe c87f 22bf 0792 763e 8f45 553e
00000020: b9e7 a33d 622b 8ebe e3c7 f8bd 49d8 8ebe
00000030: 02d3 e93e 01f1 dcbe e969 c7be 9b49 89bd
00000040: 3f6b 8abe aa8c 8c3e 809f f23e 1442 05bf
00000050: a5c7 a63e be0f f23c 2493 843c b8df a93e
00000060: 78a7 ce3e 5180 0c3f 00c6 bc3e 2d6b 5bbe
00000070: e009 963f 22d9 e13e d3f8 19bf a007 4bbe
00000080: 3a19 cb3d efdc 573e 0514 22be 613c 313f
00000090: 5b69 c5bd ea27 89bf ea23 9a3e 070e 2e3e
000000a0: a125 0c3f 0a9c 693f f619 893d a7f5 69be
000000b0: e96d ef3d 71c2 a43d 55e6 0b3e 0232 043f
000000c0: 2ff4 b9bd 3950 a3be 2460 733e da11 d93e
000000d0: 2c2a 05bf 53a7 99be 1375 49be 20de 3abd
000000e0: ec1d 8fbe 0255 d4be c2dc 9f3d c5d3 0d3f
000000f0: b21f 673e b015 3dbe 919f d8bd c757 393d
00000100: 9061 74be 64fe 8c3e f7f8 273e 136b 71be
00000110: 1e78 00bf 799a a33d d07a d4bc 60dd 94bd
00000120: fa76 13be 4cfe 453f 375d c13e 94c5 8ebe
00000130: 46e4 383e c790 babe 17cb 6e3c 7ba6 a8be
00000140: e84a 2c3e 0c4e a1be be08 49be 2ae9 bd3e
00000150: 6935 5ebe 5ea8 c0be 5459 2abf 756c ab3e
00000160: 5074 5dbf df94 ccbd a109 f63d 5d59 dabe
00000170: 35ea 203f cb66 11be a8a6 16bf 522e fbbd
00000180: 8b74 bfbd 2247 ff3e 4a03 9d3e 2470 043f
00000190: 9046 9e3e 5201 473e 53ed 61bf bc30 33be
000001a0: 18c3 f53d ee1c 143e db82 95be 2414 a6bb
000001b0: f10c 193f f34d 9e3f 61d4 1abf 3f7e 10bc
000001c0: aca0 273f f7c1 353e 091a b4be 4de8 c63d
000001d0: 5304 823e fb63 8c3d 93e5 50bc 3aeb a5bd
000001e0: a470 153c 8962 cbbe 144b 353f 18ff 99bd
000001f0: b8fe ab3c dd95 063e 506d 00be 7ced a83e
00000200: b138 cebe 379b 74bf 702b 6d3e a2c4 aabd
00000210: 3d39 723e d540 323f 85bc dd3d d12b debe
00000220: 16f3 d33e 2635 613f 778f 89be cccc 21be
00000230: 6f71 a7be 11d7 dbbe cc26 21bc d1e8 ed3e
00000240: fc51 213f 78a3 2fbf 6613 e3bd bc00 fd3c
00000250: a93f bbbd da1d 6a3f 9190 c7bf 253e 8c3e
00000260: 5b1f 1d3e 4f7d 61bf f8d5 84be 5bf8 afbc
00000270: 4a1d a63e 4693 5a3d 77c6 843e c4f0 183f
00000280: 670d 983f 0410 89bf 5dfd 9e3e 0121 e03b
00000290: 3f75 8fbe 92fd ff3e 347b 0abf 49ef 4dbe
000002a0: 79a2 533f d795 77be b3a1 3cbe 87a2 603f
000002b0: e186 dfbe 8254 173f c3d4 60bf 6f73 b7be
000002c0: e05a b2be f494 9bbf 6d24 0ebf c96c b63e
000002d0: 5122 1cbe a6a4 663e ff85 cfbe 6f5a d83d
000002e0: 57b8 dfbe 825f 1dbe 8b35 3dbf 0bd4 dc3d
000002f0: 10b9 753e 86a7 8ebd cf5a d3be 85a2 233f
00000300: 4851 9f3e e57b d13e c9d9 6cbe 8c77 56be
00000310: 1b3a 00bd f67c 8d3f 5188 3cbf 7957 52bf
00000320: ff79 263f 3044 843f 5d24 1c3e eeb0 afbf
00000330: aa33 7cbf ad42 8ebf bf8c 39bf cfb0 4b3f
00000340: 469b c23e b8c5 02bf 0111 0f3e 4926 533f
00000350: 24f6 1d3e 6f41 9cbe 06b0 a7be 69f6 93bd
00000360: 9305 8b3e 6258 253e 2716 243e e9e3 25be
00000370: 7304 6abf d9df e0bc 9a74 f0bd 3643 3abc
00000380: 13f0 d23e 7884 613e 3485 65bf 36f4 3e3f
00000390: 96c0 cbbe 7238 cfbe ef36 9cbf bcd1 02bf
000003a0: a936 923f bd8f 883f 89d7 5bbe 24d6 cc3e
000003b0: 819f fbbe dae6 c73e 6d6f cfbe b001 fd3d
000003c0: 4dd3 dd3e 53df 433f d685 a0be 1305 c83e
000003d0: 08cf 533e 136c 103e 568c 2b3e dfd8 903e
000003e0: 639f cabe df2e ffbe d0f0 c93d d81d 903d
000003f0: 09d6 0ebf b7b1 603e 9269 7a3e d615 e33e

fc3.bias f4 [4]
0.14323367 0.46576294 -0.039623488 0.0506751
00000000: d9ab 123e 7b78 ee3e 3d4c 22bd b290 4f3d
